gan2field/IP_flags, IP_DF/versions2/gen_0/0_gen_model.pt (torch, 3959 bytes, 10 tensors)

gen.0.weight f4 [3, 4]
000000 06 43 ad bc e4 ee d2 3d 20 c1 cd bd f5 6d 20 3d
       -0.021150123 0.10299471 -0.10046601 0.039167363
000010 9b 8a 53 be 48 4d 7b 3d 64 56 ab 3e 56 4c 38 3d
       -0.20658343 0.061352998 0.33464348 0.044994675
000020 64 9c 3a 3e cf fc 0a be 95 c1 fc bc 13 23 e2 bd
       0.18223721 -0.13573001 -0.030854026 -0.11041846

gen.0.bias f4 [3]
000000 43 a2 fd 3e cf 22 78 3e 2e 7c 59 3f
       0.49537858 0.24232028 0.8495511

gen.1.weight f4 [6, 3]
000000 de 5d 68 3f 9a c8 92 3e cd f8 3a 3f 7b fe 02 3e
       0.9076823 0.28668672 0.7303589 0.12792389
000010 bf 9a ad be a5 a3 2a 3e aa 49 c0 bd 60 42 41 bd
       -0.33907124 0.16663988 -0.0938905 -0.04718244
000020 c5 4e 21 bf 6b ed f2 be 70 ff 1e bd 08 1a 39 bf
       -0.6301082 -0.4744676 -0.038817823 -0.72305346
000030 0b 8d af 3d 18 d4 32 be ed c7 93 be 62 ff 3f 3f
       0.08571824 -0.1746372 -0.2886347 0.7499906
000040 09 cd da 3e 94 39 31 3c
       0.42734554 0.01081695

gen.1.bias f4 [6]
000000 60 fc 6b 3e 65 18 0b bf 67 53 0a be c5 48 b6 be
       0.23045492 -0.543341 -0.13508378 -0.35602394
000010 34 83 02 bf 2a 7c 29 3f
       -0.5098145 0.66205084

gen.3.weight f4 [12, 6]
000000 de 2b 26 3e 81 9f 1c bf ae e1 31 bf 98 0e 04 be
       0.16227672 -0.61180884 -0.69484985 -0.12896192
000010 7f b4 63 be db 51 17 3f 76 0a ed be 22 71 4e be
       -0.22236823 0.59109277 -0.46297044 -0.20160344
000020 6f b7 b5 3d eb 82 55 bc ef 68 63 3d 92 29 99 be
       0.08872878 -0.013031702 0.055519994 -0.29914528
000030 fa e4 3d 3e ca 04 07 bf e8 4c e9 be 85 4a f9 be
       0.18544379 -0.5274168 -0.45566487 -0.48689666
000040 3a b0 04 bb a3 38 d4 3e 36 b7 06 bf 6d 38 33 3e
       -0.002024664 0.4144946 -0.5262331 0.17501993
000050 82 6e 99 3e b2 95 c0 3d a5 28 7c 3e f8 21 ea be
       0.29967123 0.09403552 0.2462488 -0.4572904
000060 2f 42 ae 3e f5 e2 0a bf 9c 26 b4 be f9 a2 22 bf
       0.3403487 -0.5425256 -0.35185707 -0.63529927
000070 03 b1 db 3d 7f f6 30 3f d5 38 37 be 9d d0 6f 3e
       0.10727122 0.69126123 -0.17892773 0.23419423
000080 4f 2f b8 3c dd 36 8a 3d cf 86 fd 3d bd 6c 48 3e
       0.022483496 0.067487456 0.12379228 0.1957273
000090 58 7b 0d bf ce 80 8c 3e 0b 26 e1 3e 72 74 18 3e
       -0.5526633 0.2744202 0.43974337 0.1488817
0000a0 38 11 3a 3e 72 ed 6a 3c 35 6e 88 3e f4 27 54 be
       0.18170631 0.014338838 0.2664658 -0.20718366
0000b0 37 ef 0d 3e 12 5f f7 be c0 5d 47 3e 69 0b 07 be
       0.13860784 -0.4831472 0.19469357 -0.13187946
0000c0 14 8f 5a 3f 72 fe 0f bf 2d eb 17 bf cc 9b 91 be
       0.8537457 -0.5624763 -0.59343225 -0.28439176
0000d0 62 4b 46 bf b1 13 a0 3e bb 67 07 bf e0 9d 87 3d
       -0.77458775 0.31265023 -0.52892655 0.06621909
0000e0 c3 e2 f5 bc 34 85 b8 3e f7 76 d8 3e 4a 68 82 be
       -0.030015355 0.36039126 0.42278263 -0.2547019
0000f0 16 70 18 bf cb 8b bd 3e 2f 7f 8c 3e 29 dd 98 3e
       -0.5954603 0.37020716 0.27440783 0.29856232
000100 a9 fb 24 3e c4 00 02 bf 49 d2 1f 3f 5e a4 40 bd
       0.16111626 -0.5078242 0.62430245 -0.047031753
000110 ac 3f 85 3d db 10 01 bf 69 d0 96 bc b5 a7 25 3f
       0.06506285 -0.50416344 -0.018409925 0.64709026

gen.3.bias f4 [12]
000000 3a de 5a 3f b9 34 45 3e a2 83 d2 3e 59 b6 17 bf
       0.8549534 0.19258393 0.41116053 -0.59262615
000010 82 c6 ae 3e 00 cf 0e be d1 ab 00 bd 76 cb 63 be
       0.34135824 -0.13946152 -0.031413857 -0.22245583
000020 53 6f 86 3e 98 d4 0e bf 44 c2 14 bf e1 fc 45 3e
       0.2625681 -0.5579314 -0.58108926 0.19334747

gen.5.weight f4 [6, 12]
000000 3e 3b bb 3e bf 54 7c be 2b a3 5c 3e 50 51 18 bf
       0.36568636 -0.24641703 0.21546619 -0.59499073
000010 f1 37 0d 3f 3d 10 0a be 6e 6c fe bd a1 e1 09 be
       0.55163485 -0.13482757 -0.12423025 -0.13464977
000020 3f 61 2c 3e 82 87 f0 be 16 cd b9 be 3c 2a 87 3e
       0.16833971 -0.46978384 -0.3628928 0.2639941
000030 a9 8d 3b 3f 90 58 42 3e 70 8c 18 3f d6 4f b8 be
       0.7326303 0.18979096 0.5958929 -0.3599841
000040 26 9a ab 3e 91 be 56 bd d1 46 65 be 3f 98 ca bd
       0.33516043 -0.052427832 -0.22390296 -0.0989232
000050 f3 b2 f9 3e c0 50 c4 be 9a d9 21 be c4 c5 ae 3e
       0.4876934 -0.38342857 -0.15805665 0.34135258
000060 47 5d 9a bd 81 cb 4e 3e c4 cb 7d be d1 8d ea 3e
       -0.075373225 0.20194818 -0.24784762 0.45811322
000070 19 34 72 be 91 08 b7 bb c5 b0 dd 3d bc ec ed bd
       -0.23652686 -0.005585738 0.10824732 -0.11617419
000080 49 4b 87 be 2b 88 0a 3e 17 fd 0b 3f 20 1b 29 bf
       -0.26424626 0.13528506 0.5468306 -0.66057014
000090 0f 75 04 3f ce 25 a4 3e 6d 91 1d 3f e3 8a d3 be
       0.5174112 0.32060093 0.6155003 -0.413169
0000a0 28 ea 20 3f ed bf ba be 22 7a 24 bf d5 06 ba be
       0.62857294 -0.36474553 -0.6424886 -0.36333337
0000b0 b0 4a 58 3f 67 b3 16 be f8 df a1 be 1b 94 a3 3e
       0.84488964 -0.14716874 -0.31616187 0.31948933
0000c0 62 76 82 3e fb f2 aa 3e bc ca 3c 3f 77 0e a9 be
       0.25480944 0.33388504 0.7374685 -0.33018848
0000d0 dd d6 fb 3e a6 46 d7 be d0 41 48 3e cd 7a cd bd
       0.49187365 -0.42046088 0.19556355 -0.10033188
0000e0 13 5f f9 3e 38 b5 3f be 4e 05 5a be 95 26 50 3e
       0.48705348 -0.18721473 -0.21291086 0.20327218
0000f0 a4 95 04 bf 1e 21 4e bd 9f 95 3d be 21 5d 8c 3e
       -0.51790833 -0.05032455 -0.18514107 0.27414802
000100 43 a1 bf be 6c 25 e1 3c a2 02 af 3e 12 b6 05 bd
       -0.3742772 0.027483664 0.34181696 -0.03264434
000110 be 6e e2 be 06 f8 57 be 26 3d ac 3d 4d d4 89 bd
       -0.44225115 -0.21090707 0.08410101 -0.06729946

gen.5.bias f4 [6]
000000 06 a7 af 3d 32 df 39 3e 94 ab 53 be 84 5a 2e 3e
       0.08576779 0.18151549 -0.2067092 0.17026716
000010 50 89 ab 3e 68 ec 87 3e
       0.335032 0.2654755

gen.7.weight f4 [2, 6]
000000 9c 8b 93 3f 0b 52 ca 3f 9b cb ad bf 48 7b ab 3f
       1.152698 1.5806288 -1.357776 1.3396997
000010 eb be 8c 3f df 7d 19 bf 67 d5 08 3e 69 08 ab 3d
       1.0995764 -0.5995769 0.13362657 0.083512135
000020 64 f3 0a 3e 3e db e1 be f7 51 99 be 70 99 67 3d
       0.13569409 -0.4411258 -0.29945347 0.056542814

gen.7.bias f4 [2]
000000 6f fe ab 3f 8c 7e a5 be
       1.3437022 -0.3232311
