gan2field/IP_flags, IP_DF/versions2/gen_0/1_gen_model.pt (torch, 3959 bytes, 10 tensors)

gen.0.weight f4 [3, 4]
0	0x3e7270f9	0.23675908
1	0x3e669bf7	0.22520433
2	0x3e051168	0.12994921
3	0xbe793d76	-0.24339852
4	0xbdc45895	-0.09587208
5	0xbe05fe3c	-0.13085264
6	0xbec11a4f	-0.37715384
7	0x3ebff081	0.37488177
8	0xbc6d2abb	-0.01447552
9	0x3ddf1fe6	0.10894756
10	0xbecfbc53	-0.40573367
11	0x3e5131c0	0.20429134

gen.0.bias f4 [3]
0	0x3e056426	0.13026485
1	0x3f04dc91	0.5189906
2	0xbef51e82	-0.47874838

gen.1.weight f4 [6, 3]
0	0xbe09a704	-0.13442618
1	0x3e02c92b	0.12772052
2	0xbee8897a	-0.45417386
3	0xbf4598a2	-0.77186024
4	0xbf2415d2	-0.64095795
5	0x3ecc0398	0.39846492
6	0x3dc11b2e	0.09429012
7	0xbea85cd5	-0.32883325
8	0x3e9ff94a	0.3124488
9	0xbe97f6aa	-0.29680377
10	0x3e712700	0.23550034
11	0xbe001371	-0.12507416
12	0x3eceee1d	0.4041604
13	0xbd946c6c	-0.07247242
14	0x3e395bf6	0.18101487
15	0xbe80acbc	-0.25131786
16	0xbe0180eb	-0.12646835
17	0x3e80d572	0.25162846

gen.1.bias f4 [6]
0	0x3f4545af	0.77059454
1	0xbe8de8bc	-0.27716625
2	0xbebff043	-0.37487993
3	0x3d5bd467	0.05366936
4	0xbd8c9737	-0.068647794
5	0x3ec9e9bf	0.39436147

gen.3.weight f4 [12, 6]
0	0x3e5dc4fa	0.21657172
1	0x3e84d8f8	0.25946784
2	0x3e5b1d22	0.21397832
3	0x3e526039	0.20544519
4	0x3ecb52c6	0.3971159
5	0x3ef30de7	0.47471544
6	0x3d21ed4e	0.039532952
7	0xbd8b6f95	-0.06808392
8	0xbd8d6ec6	-0.06905894
9	0xbeb9c605	-0.3628389
10	0xbddafa70	-0.106922984
11	0xbe9c367e	-0.30510324
12	0xbecade1d	-0.39622584
13	0x3e7ca881	0.24673654
14	0x3e744929	0.23856033
15	0x3e5afe5a	0.2138609
16	0xbf0217a5	-0.5081733
17	0x3e9b70b3	0.3035942
18	0xbe662876	-0.22476372
19	0x3e3e2765	0.18569715
20	0xbeddf492	-0.43350655
21	0xbe3d932e	-0.18513176
22	0x3dab81d1	0.0837437
23	0x3e2feb59	0.17179622
24	0xbebfcfda	-0.37463266
25	0x3eb940d3	0.3618227
26	0x3e1a413c	0.15063947
27	0xbd9bbfb6	-0.07604925
28	0xbe7f2ee6	-0.24920234
29	0xbe81baf8	-0.25337958
30	0xbdc8abd7	-0.09798401
31	0xbe91e5e9	-0.2849572
32	0x3ea82ba2	0.3284579
33	0x3e528773	0.20559482
34	0x3ea12c7f	0.3147926
35	0x3eaad9b1	0.3336921
36	0x3e490b54	0.19633228
37	0xbf60e385	-0.8784717
38	0x3e66d99f	0.22543953
39	0x3dac4fb4	0.0841364
40	0x3e9e80e2	0.30957705
41	0xbe2e7e5f	-0.17040394
42	0xbc43e2b1	-0.011955903
43	0xbe1fd8b7	-0.15610014
44	0xbe1405db	-0.14455359
45	0x3ebaee08	0.36509728
46	0xbed3eb34	-0.41390383
47	0xbeaa2d54	-0.33237708
48	0xbe88bad6	-0.26705045
49	0x3ec8d543	0.39225206
50	0x3e797de2	0.24364427
51	0x3d02f580	0.03197241
52	0xbe4b13f5	-0.19831832
53	0xbeb64dac	-0.35606134
54	0x3f130493	0.57428855
55	0xbf0285e6	-0.5098556
56	0x3e222426	0.15834102
57	0x3d9bbb27	0.07604056
58	0x3d2bb8a8	0.04192415
59	0x3e6674e5	0.22505529
60	0x3e777ad5	0.2416795
61	0xbef6905a	-0.48157007
62	0xbef92833	-0.48663482
63	0x3e089509	0.13338102
64	0xbdbe78ee	-0.09300409
65	0x3d5a7943	0.0533383
66	0xbdd12cdc	-0.10213634
67	0x3d5a9372	0.05336327
68	0xbe981ff8	-0.2971189
69	0xbd8f209c	-0.069886416
70	0x3ed39886	0.41327304
71	0xbed5200d	-0.41626015

gen.3.bias f4 [12]
0	0xbbb8ea04	-0.005643131
1	0x3ecefe6d	0.40428486
2	0x3e8cabc4	0.27474797
3	0x3eb96467	0.36209413
4	0x3e4ef837	0.20211874
5	0xbd44e4de	-0.048069827
6	0x3e13909a	0.1441063
7	0xbde468dc	-0.11152813
8	0xbeb5484a	-0.35406715
9	0x3ea09822	0.31366068
10	0x3f0781c9	0.5293241
11	0xbd0bf482	-0.034168728

gen.5.weight f4 [6, 12]
0	0xbd85da22	-0.06535746
1	0x3e89846b	0.2685884
2	0x3e443e8b	0.19164483
3	0x3e90547f	0.28189465
4	0xbe78fbf0	-0.24314857
5	0xbe88005a	-0.26562768
6	0xbc84fd9f	-0.016234217
7	0x3bbc680e	0.005749709
8	0xbe0fc6fc	-0.1404075
9	0x3e1c4968	0.15262377
10	0x3ee060d8	0.43823886
11	0x3dc91931	0.09819258
12	0x3bcc19f9	0.006228682
13	0x3e916d6f	0.28403804
14	0x3da0c101	0.078493126
15	0xbd731f65	-0.059356112
16	0x3ba673cf	0.0050797234
17	0x3df8b14a	0.1214319
18	0x3e74685d	0.23867936
19	0x3e05ac82	0.13054088
20	0x3bc8ac42	0.0061240504
21	0x3e5bb35f	0.21455143
22	0x3e401330	0.1875732
23	0x3d60172d	0.054709602
24	0x3e4c7210	0.19965386
25	0xbe906a3f	-0.2820606
26	0x3e8e238f	0.27761504
27	0xbea05fa3	-0.31322965
28	0xba97fde7	-0.0011596055
29	0xbdea6d65	-0.114466466
30	0xbec5effe	-0.38659662
31	0xbc02d78b	-0.00798596
32	0x3ec9d0cd	0.39417115
33	0xbf3427c9	-0.7037321
34	0xbeabf1c1	-0.3358288
35	0xbd3933c4	-0.045215383
36	0x3d2fd4d4	0.042927578
37	0x3dfdc815	0.12391678
38	0xbdc393bb	-0.09549662
39	0x3e5b9822	0.21444753
40	0xbd67a45a	-0.056553222
41	0xbdf4e87f	-0.119584076
42	0x3e5c4b7f	0.21513174
43	0xbe021370	-0.12702727
44	0xbe5cde2a	-0.21569124
45	0x3e5895ac	0.21150845
46	0x3e02f50a	0.12788787
47	0x3e0bdec5	0.13659199
48	0x3e87b742	0.26507002
49	0x3aef956a	0.0018278782
50	0xbd9c4656	-0.07630603
51	0x3db79620	0.08964181
52	0xbc2b9821	-0.010473282
53	0x3ccd7b52	0.025083218
54	0x3e5616b9	0.20907106
55	0xbe086945	-0.13321407
56	0x3c436516	0.011925956
57	0x3d2a0623	0.04150976
58	0x3e8b3986	0.27192324
59	0xbe9cfb34	-0.30660403
60	0xbe74dc09	-0.23912062
61	0x3e97ec09	0.29672268
62	0x3d9a20ed	0.07525811
63	0x3e3e6e70	0.18596816
64	0xbe0c9e5c	-0.13732284
65	0x3ca767f0	0.020435303
66	0x3e2b2910	0.16714883
67	0xbb88aac2	-0.0041707465
68	0xbebf3b93	-0.3735014
69	0x3d659366	0.056048773
70	0x3e27af19	0.16375388
71	0xbe8a2fa9	-0.26989487

gen.5.bias f4 [6]
0	0x3e12be95	0.14330514
1	0x3e813fea	0.25244075
2	0xbf102396	-0.563043
3	0xbd4cf49f	-0.050037976
4	0x3e7a90b3	0.24469261
5	0x3e0f0892	0.13968113

gen.7.weight f4 [2, 6]
0	0xbed4d066	-0.41565245
1	0x3de4c5d1	0.11170543
2	0x3f17b04a	0.5925337
3	0xbe37f8d9	-0.17966022
4	0xbeb64afc	-0.35604084
5	0xbe836f6b	-0.25670943
6	0x3d1a4c50	0.037670434
7	0x3e9f8e4a	0.31163245
8	0xbe93e7eb	-0.28887877
9	0xbccc1a60	-0.02491492
10	0x3ca935b1	0.020655485
11	0x3dc87899	0.09788627

gen.7.bias f4 [2]
0	0x3dd5fa70	0.10448158
1	0x3ecb68de	0.39728445
