gan2field/LLC_ctrl, EAOPL_version/versions/01_disc_model.pt (torch, 4623 bytes, 9 tensors)

disc.0.weight f4 [4, 2]
00000000: e35e dabf 2a95 bebf 1871 d9be 4e81 f6be
00000010: c497 6d3f b901 c93f bd02 c6bf 9885 c7bf
-1.7060207 -1.4889271 -0.42469096 -0.48145527 0.928097 1.5703651 -1.5469586 -1.5587645

disc.0.bias f4 [4]
00000000: 5805 90be 4fcc 97bf 6081 823e 8a2a 5d3f
-0.28129077 -1.1859225 0.2548933 0.86393034

disc.1.weight f4 [8, 4]
00000000: 5430 72bf 3272 bd3e 9842 ec3d c7c9 b0bf
00000010: ccc4 763e e4da ba3e 14b0 213e 92a9 adbe
00000020: 8fb0 08be 408f 24bf 2ca5 8e3f cfe2 98bc
00000030: 7f9a 0bbd 8a3c 24bf fa09 24be 70e2 763f
00000040: cfdc 123e b5d5 93bf 7049 a0be 3373 933f
00000050: 1bc8 80bf fc72 d6be 74d1 5c3f 6fb4 44be
00000060: c273 8b3f a403 b1bd 72cf 1dbf 41bf 593f
00000070: 70b1 95bf cc28 21bf 330c ad3f e785 5dbf
-0.9460499 0.37001187 0.11536139 -1.3811578 0.2409851 0.36495125 0.15789825 -0.33918434
-0.13348602 -0.6428108 1.1144156 -0.018662838 -0.034082886 -0.64154875 -0.16019431 0.96439266
0.14342044 -1.1549593 -0.31306028 1.1519531 -1.0061067 -0.418846 0.862571 -0.19209455
1.0894701 -0.086432725 -0.6164466 0.85057455 -1.1694775 -0.62952876 1.3519348 -0.86532444

disc.1.bias f4 [8]
00000000: c1dd bfbe 20ac eabc 017c fa3e 1598 5d3f
00000010: c1e4 293f 84ca cf3e 978b eabc 27f7 bb3e
-0.37473872 -0.028646529 0.48922732 0.86560184 0.66364676 0.40584195 -0.028631015 0.36712

disc.3.weight f4 [16, 8]
00000000: bfb0 a9bf 0654 6e3e c186 103f 3a26 1c3e
00000010: 7793 60bc 1e0c 1a3f e4c1 95bf f597 ed3e
00000020: e26d af3e 0e79 12be 0562 71bd 2fe4 e03e
00000030: 2a25 583f a15e b1be b3e0 bb3f 5e40 72bf
00000040: b1cb 6f3f c7fc 7fbe 7fc3 92be ed45 cabe
00000050: 7b8b 51bf b3a8 983d 0aab fa3e fb03 443f
00000060: 71de 66bf 388c 72be 077a 9a3e 2911 1fbe
00000070: 0c1a 2e3e 0260 ec3e e419 93bf 4a2a f73e
00000080: 7223 c83e dc4c 9b3d 5ffd 50bd f50c 053f
00000090: f9d0 0d3f c4e0 07bf 0d84 a93f 818f 8fbf
000000a0: 0f65 0abf e6c1 96be 1ab9 963e 6065 083e
000000b0: d5d1 213e 3a43 133f 811d 7fbf 277d e93e
000000c0: 758a 38be dec0 6b3e 0f65 e43e 9717 2b3f
000000d0: 59e7 3d3f d5f2 a7be b4c9 393e 7c12 95be
000000e0: a624 483f c452 063e 0a44 1fbb 173c 71bf
000000f0: 7774 7abf 9a11 dc3e 4103 873f e083 0b3f
00000100: ba9b 0b3d a693 613e 5f80 e3be a902 49bf
00000110: 8a77 0cbe 8b1e a6be 6495 f93a b7c8 03bf
00000120: 38de 14bf ae6e 77be 5816 bf3e 4cdf 473e
00000130: 2ab1 da3e 3d6a 3b3f 5e70 5abf f3f8 a23e
00000140: 2e7d 3dbf 10c1 a53d 2180 d93e c317 db3d
00000150: 04f5 403e 7a02 3c3f 9b0b 4fbf 4421 323f
00000160: 4d24 903f fffc 92be 7e9a 203e 10c0 adbf
00000170: 1d1c d5bf b087 c83c 8bfa 45bc afe0 503e
00000180: 51fe 1b3f 7053 4d3d 34a6 c5be b236 43bf
00000190: 3b70 8cbe a604 c83e 9c9c ac3f 9d2a 173f
000001a0: 6f27 2c3f fdd7 67be 7142 6e3d e6b4 5cbf
000001b0: ac16 48bf ffbf 893c 54d2 f03e 1b29 273f
000001c0: 1e19 08bd b31d 9f3e 3c3c 043f 3619 a5bd
000001d0: 6fec 21be b751 2b3f f6f9 f1be c828 583f
000001e0: 8a40 443f bc04 a7be 8549 7abe 7da4 5cbf
000001f0: 1b61 b3be 8df0 3cbd 3392 813f e52a 2f3f
-1.3257064 0.2327424 0.5645562 0.15248957 -0.013707033 0.6017474 -1.1699796 0.46404997
0.3426352 -0.14303991 -0.05893137 0.4392409 0.8443171 -0.3464251 1.4677948 -0.94629467
0.93670183 -0.2499877 -0.28664777 -0.39506474 -0.81853455 0.07454052 0.48958617 0.76568574
-0.9018317 -0.23686302 0.30171224 -0.1553389 0.17002124 0.46166998 -1.1492276 0.48274451
0.39089543 0.07583019 -0.051022884 0.51972896 0.5539699 -0.5307734 1.3243424 -1.1215669
-0.54060453 -0.29444808 0.29438096 0.13319921 0.15802701 0.57524455 -0.99654394 0.45603296
-0.18021567 0.23022792 0.44608352 0.6683287 0.74181134 -0.32802454 0.1814335 -0.29115665
0.7818092 0.1311751 -0.002430203 -0.94232315 -0.9783396 0.4298218 1.0547868 0.544981
0.03408406 0.2202898 -0.44433877 -0.78519684 -0.13717476 -0.32445177 0.0019041714 -0.5147814
-0.5815158 -0.24163315 0.37321734 0.19518775 0.4271329 0.7320898 -0.8532771 0.31830558
-0.74019134 0.080934644 0.42480567 0.106978916 0.18843466 0.7344128 -0.80877084 0.6958201
1.1261078 -0.28708646 0.15683934 -1.3574238 -1.6649204 0.024478763 -0.01208366 0.2039821
0.6093493 0.0501284 -0.38603365 -0.76255333 -0.27429375 0.39066046 1.3485293 0.590494
0.6724767 -0.22640987 0.058168832 -0.8621353 -0.78159595 0.016815184 0.47035468 0.65297097
-0.03322708 0.31077346 0.5165441 -0.08061449 -0.15812849 0.6692156 -0.47261018 0.8443723
0.7666098 -0.326208 -0.24442108 -0.8618849 -0.35035023 -0.046127845 1.0122741 0.68424827

disc.3.bias f4 [16]
00000000: d097 a73c b1fc bb3d c54f cabe 7fb0 933e
00000010: 2ce4 353f 8f97 8f3e 5f66 bc3e d4c3 81be
00000020: 1ec3 0fbf 9cef fa3e 0632 6f3e 9716 54be
00000030: f7ac d9be 19ae fdbe 1995 c53e 7ebb 43be
0.020458132 0.091790564 -0.39513984 0.28845593 0.7105129 0.28045318 0.36796853 -0.25344718
-0.561571 0.49010932 0.23358926 -0.20711742 -0.42514774 -0.49546888 0.38590315 -0.19114491

disc.5.weight f4 [8, 16]
00000000: fa5d 16bd fbfe 1e3d 8923 743e 1872 1a3d
00000010: 0bb6 4abd 603b ffbd f0c4 c0bd 2041 96bd
00000020: 77c0 1fbe 0307 88be 042e 53be 5f4a 5f3d
00000030: aa0e 13be c6c5 a0bc 501b 28be e572 883e
00000040: b3cc 4c3f 5a84 28bf abaa 1abf 8f22 db3e
00000050: ee8c 4dbf ab90 283f 86be 1b3e d88e ebbe
00000060: 25ff 0ebf 7c01 1e3f 164d 013f a158 36bf
00000070: 23f8 0dbf 52d1 10bf e242 343f b79e 2bbf
00000080: 2b63 30bf add6 8a3f ff98 423f c3f1 63bf
00000090: 6a95 5a3f 5066 a3be 2542 113f 6116 353f
000000a0: 8ede a2be 4077 90bc f54b 7bbe f6c3 4d3f
000000b0: d7f3 213f f061 0b3f 436a 6c3e 6be5 673f
000000c0: ab9d 4a3e a1ff 19be ec53 13be 81f9 95bd
000000d0: 0297 0a3e 25ec 973e 64e1 a0be ae32 f33d
000000e0: 7ca4 cc3c b28d 54be 5fc7 7fbe 6d89 223d
000000f0: f06f 7abd 6f00 943d be34 873d fba7 dfbd
00000100: 1ebe 55bf 3cd0 9a3f 2972 51bf 015e 35bf
00000110: 7d37 ab3f 0826 94be 9472 b43e 9ca3 5cbf
00000120: 695e 39be b444 15be 9e01 b3be fd98 7fbf
00000130: 3624 c8bd 4f60 88bf 42ec 6dbe f57b d1be
00000140: 8c74 5f3f 7ac2 48bf d8db dbbe 51e3 283f
00000150: a106 d2be c459 be3e 8bd5 7c3e ebb0 56bf
00000160: 5d1d 84be 14fa fe3e 3684 2d3f 6139 2cbf
00000170: 3aaa cebe 9a84 18bf eca2 023f aee0 43bf
00000180: 70ee 10bf de5f 3dbf beb4 513f 1bfb d1be
00000190: cee9 37bf cee2 d7bd b295 bdbe a6a9 643f
000001a0: 2a6d e23c 082f 3abe a320 e93b a4a4 803f
000001b0: cff4 2c3f c31a 543f f4bf 083f f15a 363f
000001c0: 1eb3 75bf 2d4c 9f3f 2dfb 6a3f 97f6 76bf
000001d0: c601 9e3f 5428 aabe 6ef1 513e e798 313f
000001e0: 2e33 9cbe fd08 4f3d ba47 37be 0d2e 233f
000001f0: 185e 8d3f 8186 2f3f 1dfc 69be 2269 7c3f
-0.036710717 0.038817387 0.2384168 0.037706465 -0.049490016 -0.12462497 -0.09412563 -0.0733664
-0.15600763 -0.2656785 -0.20623022 0.054514285 -0.14361063 -0.019625556 -0.16416669 0.26650158
0.79999846 -0.6582695 -0.6041667 0.42799804 -0.80293167 0.65845746 0.15209398 -0.4600742
-0.5585807 0.61721015 0.5050825 -0.71228987 -0.5545675 -0.565694 0.70414555 -0.67039055
-0.6890132 1.0846764 0.76014704 -0.89040774 0.8538424 -0.31913996 0.56741554 0.7073727
-0.3181042 -0.017634988 -0.24540694 0.8037714 0.63262695 0.54446316 0.2308741 0.9058444
0.19786708 -0.15038921 -0.14387482 -0.0732298 0.13534167 0.2967235 -0.3142196 0.11874901
0.024980776 -0.20757177 -0.24978398 0.03968184 -0.06114191 0.07226645 0.06601857 -0.109207116
-0.8349322 1.2094798 -0.8181482 -0.70846564 1.3376309 -0.28935266 0.35243666 -0.8618715
-0.18102421 -0.1457699 -0.3496217 -0.99842817 -0.09772532 -1.0654391 -0.23234656 -0.40914884
0.8728721 -0.7842175 -0.42941165 0.6597186 -0.41020682 0.3717786 0.24690835 -0.83863705
-0.25803652 0.4980017 0.6777986 -0.67275053 -0.40364248 -0.59577334 0.5102985 -0.7651471
-0.56613827 -0.73974407 0.81916416 -0.4101189 -0.7184113 -0.105413064 -0.3702827 0.8932136
0.027639944 -0.18182003 0.0071144863 1.0050244 0.6756105 0.82853335 0.534179 0.71232516
-0.95976436 1.2445122 0.91789514 -0.96470016 1.2344291 -0.33233893 0.20502254 0.69373935
-0.30507797 0.05054568 -0.17898455 0.6374214 1.104434 0.6856461 -0.2285008 0.9859792

disc.5.bias f4 [8]
00000000: 6df1 42be 923e 1b3e 964a c03e 3a49 a2bd
00000010: 2dc2 ea3e f0ff 943e aec8 223e 0444 e03e
-0.19037409 0.15160587 0.37556905 -0.07924123 0.4585127 0.29101515 0.15896866 0.43801892

disc.7.weight f4 [1, 8]
00000000: 5f51 803e cd72 793f 9062 49bf bb36 023e
00000010: adb2 a5bf 86f6 543f cd48 46bf 0cb5 54bf
0.2506208 0.974408 -0.7866602 0.1271619 -1.2945153 0.83188665 -0.77454835 -0.83088756
