gan2field/LLC_ctrl, EAOPL_version/versions/03_disc_model.pt (torch, 3275 bytes, 7 tensors)

disc.0.weight f4 [4, 2]
000000 ee bd 64 3f 05 59 b8 bf 08 41 65 3f e7 e7 04 40
       0.8935231 -1.4402167 0.89552355 2.0766542
000010 d0 60 ec bf bd db 34 bf d9 d8 27 3e c0 57 26 40
       -1.8467045 -0.70647794 0.16391315 2.5991058

disc.0.bias f4 [4]
000000 7f e5 b1 3e d2 22 0e 3e cb 4e 97 3e 16 fe 3f 3e
       0.34745404 0.1388047 0.29552302 0.1874927

disc.1.weight f4 [8, 4]
000000 ec cc b0 3f 59 bb 1c bf 88 63 94 be 63 5d b7 bf
       1.3812537 -0.6122337 -0.28982186 -1.4325374
000010 53 a3 34 3f 51 47 8a bf ad 6a a2 3e 8d 50 c2 bf
       0.70561713 -1.0803014 0.31722012 -1.5180832
000020 d5 54 38 3e a3 c7 fe 3e 3f 4d 0d c0 81 05 39 3f
       0.18001111 0.49761686 -2.2078397 0.72274023
000030 f0 e4 a1 3f b1 d0 01 c0 9c d0 fe be dd 0e 2a c0
       1.2647991 -2.0283625 -0.4976853 -2.6571572
000040 34 55 52 bf 61 be a2 3f 9b 08 be bf 66 1a 28 3f
       -0.8216126 1.2714349 -1.4846376 0.6566528
000050 b9 5e 99 be ba 52 0c 40 ae cd 8c bf 95 45 30 3f
       -0.2995508 2.1925492 -1.1000268 0.68856174
000060 70 95 b6 bf 70 ba 32 3f fd 04 1d 3f dc 24 78 3f
       -1.4264355 0.6981573 0.61335737 0.9693124
000070 41 6f 42 3f cf 83 aa 3f c7 4b 03 c0 9a 12 f7 3e
       0.7595101 1.3321475 -2.0515 0.4825638

disc.1.bias f4 [8]
000000 7c ca 74 3f 03 5b 61 bf 2c 14 3e bf 4c 5a 54 bf
       0.95621467 -0.880295 -0.7424953 -0.8295028
000010 78 6b 66 bf 50 6d b7 be e7 ee c3 bd aa cf 9d 3f
       -0.90007734 -0.35825586 -0.095670514 1.2328999

disc.3.weight f4 [8, 8]
000000 3b d1 b7 3f b1 61 79 be 5d 20 c6 bf 0b 66 03 bf
       1.4360727 -0.24353673 -1.5478626 -0.5132758
000010 7e 35 85 bf 65 88 9e 3e d4 a7 0f 3e 20 de 92 3f
       -1.040695 0.30963436 0.14028865 1.1474037
000020 cd 65 cd bd 42 ba 5a 3f 62 62 25 3e d9 99 a9 3f
       -0.100291826 0.85440457 0.16150811 1.3250076
000030 89 56 74 bf 2d b4 d2 bf e2 c3 99 be 2a 93 b6 bf
       -0.9544454 -1.6461235 -0.3003226 -1.4263661
000040 7b 4c 02 3e f5 f1 ec 3e 48 73 f0 3e b2 72 b9 3f
       0.12724487 0.4627835 0.46962953 1.4488127
000050 6b f2 c6 3f 24 23 8f 3f 8c 95 19 be 5d 9f ea be
       1.554273 1.1182599 -0.14998454 -0.4582471
000060 c7 8f 6a 3f 15 e7 61 bf 2e 83 20 bf 4b 43 15 bf
       0.91625637 -0.8824323 -0.62700164 -0.58305806
000070 36 b3 a5 bf 0a da 21 bf 57 7f 12 bf 0c 60 a6 3f
       -1.2945316 -0.63223326 -0.57225555 1.2998061
000080 ce ca bf 3f 12 7e 5f 3f 62 67 d3 be 1a 6f 26 bf
       1.4983766 0.87301743 -0.41289812 -0.6501328
000090 bc f9 53 bf c7 29 83 bf c5 a7 ff be e8 f5 10 3f
       -0.8280294 -1.0247124 -0.49932685 0.56625223
0000a0 21 30 66 be de d5 0f be fd 74 13 bf 1a 8d aa bf
       -0.22479297 -0.14046428 -0.57600385 -1.3324311
0000b0 3e 3e f3 bf 16 a0 43 bf fe db f6 3e f1 51 9a 3e
       -1.900337 -0.76416147 0.48214716 0.3014064
0000c0 c8 ae f7 be 79 32 a3 3e e3 8b c3 be 8d 5d a0 3f
       -0.48375535 0.31874445 -0.38192663 1.252855
0000d0 08 0d 59 bf fb 1d 17 c0 ee 82 db be b6 f9 ec bf
       -0.8478551 -2.3612049 -0.4287333 -1.8513706
0000e0 86 43 7b be f6 8e b4 3f 19 cb 07 bf 0b 2b 3c 3f
       -0.24537477 1.4106128 -0.5304428 0.7350318
0000f0 4f c4 ac be 6e 66 ef be 3e be ac 3e 8e cd c8 bf
       -0.33743522 -0.46757835 0.33738893 -1.568773

disc.3.bias f4 [8]
000000 38 31 50 c0 92 89 52 3f 70 d0 12 40 1c 89 6c c0
       -3.253004 0.82241166 2.293972 -3.6958685
000010 30 e1 f8 bf 19 94 01 c0 4b 64 f0 bc ac 05 6d 3f
       -1.9443722 -2.0246642 -0.029344698 0.9258678

disc.5.weight f4 [1, 8]
000000 13 2d 69 40 df 33 76 bf 96 57 1b c0 49 35 5d 40
       3.643376 -0.961729 -2.4272208 3.4563773
000010 16 3f de 3f 1d 1a d2 3f fa c5 b4 bf ae 1c 39 bf
       1.7363002 1.6414219 -1.4122918 -0.72309387
