gan2field/LLC_ctrl, EAOPL_version/versions/03_gen_model.pt (torch, 3201 bytes, 8 tensors)

gen.0.weight f4 [3, 4]
000000 54 e7 91 bf 76 15 16 c0 ed f1 03 3f 00 1e 3a 3f
       -1.1398721 -2.3450599 0.51541024 0.72702026
000010 42 6c d4 3f fd 67 9f 3f 64 92 40 bf 28 37 8e bf
       1.6595538 1.245361 -0.75223374 -1.1110582
000020 47 6d ff bf 6f 6d 5c bf 58 bd 20 3f 59 c4 a5 3f
       -1.9955224 -0.8610448 0.62788916 1.2950546

gen.0.bias f4 [3]
000000 56 12 59 be 3f e4 36 3e f5 08 d8 3e
       -0.21198401 0.17860506 0.42194334

gen.1.weight f4 [6, 3]
000000 9c b3 81 3f 96 38 9c bf 71 8c 27 3f a0 f8 9a bf
       1.0132937 -1.2204769 0.6544867 -1.2107124
000010 d5 43 80 3e a2 e9 77 bf e4 2b c4 3f 50 16 e2 3e
       0.25051752 -0.9684087 1.5325894 0.44157648
000020 ae 2c 4b 3f 8d f5 38 be a7 d4 af 3f c2 a4 87 bf
       0.7936505 -0.1806242 1.3736771 -1.0597155
000030 4a 3f 09 3f 39 0a d0 bf b3 45 e8 3e 76 ac c6 3d
       0.53612196 -1.625312 0.45365676 0.09700863
000040 47 69 6e bf e3 ff 9b 3f
       -0.9312939 1.2187465

gen.1.bias f4 [6]
000000 39 a7 a4 bd bb 44 98 bd fd d7 95 be 8e f9 6c 3d
       -0.08039708 -0.07434984 -0.29266348 0.05785518
000010 d7 eb 8c bf d0 59 69 3f
       -1.1009473 0.9115267

gen.3.weight f4 [12, 6]
000000 e0 dd 33 bf e1 c8 c4 3e 93 5a b4 bf a4 31 8a bf
       -0.7026043 0.38434508 -1.4090141 -1.0796399
000010 45 69 d8 be b2 45 cc 3e 47 eb 4f 3f 42 16 7a bf
       -0.42267814 0.39896923 0.8121838 -0.9769021
000020 72 b2 23 3f e2 36 cd bf bb a6 d0 3f cd aa 68 3c
       0.6394416 -1.6032374 1.6300882 0.014200878
000030 66 d9 93 bf 52 34 88 3f a9 70 e5 be 9a ef aa 39
       -1.155072 1.0640967 -0.44812515 0.00032603444
000040 36 cf 17 3f 0f 00 0f be 4c 2a b5 3e 40 90 b4 be
       0.59300554 -0.13964866 0.35383832 -0.35266304
000050 58 46 84 3f 78 76 a2 3f 7a 23 cb be e1 77 69 bf
       1.0333967 1.2692404 -0.39675504 -0.91198546
000060 92 56 46 3f c2 fc 01 bf 09 1c 25 3f 13 8f a5 bd
       0.77475846 -0.507763 0.64495903 -0.0808393
000070 03 d5 cf bd 53 05 a5 bd cb ae 23 3c 8a a5 ac be
       -0.10148051 -0.08057656 0.009990404 -0.33720046
000080 d5 25 e1 3e 85 6e 7e 3e 91 bc c6 bf ab 16 2c bd
       0.43974176 0.24846847 -1.5526296 -0.042013805
000090 ee c9 8a 3f 12 00 97 bf 6f 07 34 3f f5 68 50 3e
       1.0842874 -1.1796896 0.7032384 0.20352538
0000a0 4c 25 b8 3e 1f 97 80 be a5 71 2a be 3b 16 2b 3f
       0.35965955 -0.25115296 -0.16644914 0.66830796
0000b0 02 0d df be 66 fc d2 be 01 ef 8b be 43 26 5e 3f
       -0.43564612 -0.4120819 -0.27330783 0.8677713
0000c0 37 10 93 bf 00 a8 88 3f cd 79 88 bf b8 d8 bc 3c
       -1.1489323 1.067627 -1.0662171 0.023052558
0000d0 f3 05 9b 3e 94 58 c9 bf f6 9a 73 bf e4 42 51 3f
       0.30277976 -1.5730157 -0.95158327 0.8174269
0000e0 76 62 90 bf a6 89 c2 3e 3b 15 08 3f 5b 38 a3 bf
       -1.1280048 0.37995642 0.53157395 -1.2751573
0000f0 fc d6 a1 bf 7f d7 8b 3f 11 16 c0 bd 70 e1 bf 3f
       -1.2643733 1.0925139 -0.09379209 1.4990673
000100 2e bb ea bf 98 e1 05 be 48 d4 94 bf 90 2c b3 3f
       -1.8338373 -0.13074338 -1.1627283 1.3997974
000110 14 20 42 bf 09 1c 68 3e 49 ca 0e 3f 4c 4b 47 bf
       -0.758302 0.22666945 0.5577741 -0.7784927

gen.3.bias f4 [12]
000000 36 2a 32 3f 7c 2e 27 bf 6b da 7b 3e b2 3d fe 3e
       0.6959566 -0.65305305 0.24595039 0.49656445
000010 14 a9 ca bd 9c e8 0a 3f 15 00 5c 3e 20 b6 b1 bf
       -0.0989553 0.54261184 0.21484406 -1.3883705
000020 2f ba 9d be 42 03 04 be 0f 01 15 3f 7f 4b 44 be
       -0.3080611 -0.12891868 0.5820474 -0.19169424

gen.5.weight f4 [2, 12]
000000 53 c0 86 3e 82 6f 9d 3e f3 ef 31 3f 31 21 44 3e
       0.26318607 0.30749136 0.6950676 0.19153287
000010 7a c6 b8 be db 16 91 bd d5 c0 4f be f0 ad 9b bc
       -0.36088926 -0.070844375 -0.20288403 -0.019003838
000020 42 b6 7a 3f 92 00 71 3f c8 18 83 be 19 6c 8d 3f
       0.97934353 0.94141495 -0.25604844 1.1048614
000030 05 50 4a bd 50 1d 84 bf cf c3 87 bd a6 29 e0 3d
       -0.04939272 -1.0321445 -0.066291444 0.10945444
000040 ce 73 61 3e 05 d1 ce 3d b8 0e b6 3e 47 02 92 bd
       0.22016832 0.10098461 0.35558105 -0.071293406
000050 b3 d4 5c bf 8d 79 1a bf 60 10 9f 3f 21 03 0b bf
       -0.86262053 -0.6034172 1.2426872 -0.5430165

gen.5.bias f4 [2]
000000 ef fb 2d 3f e6 22 a0 3e
       0.67962545 0.31276625
