gan2field/IP_flags, IP_DF/versions2/gen_5/0_gen_model.pt (torch, 3959 bytes, 10 tensors)

gen.0.weight f4 [3, 4]
-0.34816322 -0.43985826 0.0585314 -0.0920644 -0.29987174 -0.0934761 0.32078013 -0.64955497
0.05286705 0.25483432 -0.11050445 0.08466488
00000000: 7342 b2be 1a35 e1be 9fbe 6f3d 438c bcbd
00000010: ca88 99be 6670 bfbd 4b3d a43e 3c49 26bf
00000020: 1f8b 583d a579 823e 2850 e2bd c864 ad3d

gen.0.bias f4 [3]
-0.61209744 -0.7251145 -1.1323185
00000000: 6bb2 1cbf 1ba1 39bf d0ef 90bf

gen.1.weight f4 [6, 3]
-0.20550634 -0.53034604 -0.6244456 -0.46659338 -0.4505351 -1.0124024 -0.3937941 -0.022559559
-0.4665263 0.704849 0.51231056 0.240861 -0.10572155 0.48894018 1.1329255 0.5868584
0.48600987 1.2115068
00000000: 4170 52be c2c4 07bf abdb 1fbf 54e5 eebe
00000010: 89ac e6be 6796 81bf 619f c9be d3ce b8bc
00000020: 89dc eebe fc70 343f c926 033f 44a4 763e
00000030: 8a84 d8bd 5e56 fa3e b403 913f 5a3c 163f
00000040: 49d6 f83e a812 9b3f

gen.1.bias f4 [6]
-0.099079676 0.5861553 0.6236454 0.27787638 -0.5184019 -0.41696945
00000000: 49ea cabd 460e 163f 3aa7 1f3f d045 8e3e
00000010: fdb5 04bf 057d d5be

gen.3.weight f4 [12, 6]
-0.37526527 0.6302396 1.03259 0.37928513 -0.99155515 -0.3066768 -0.025525566 0.50300074
0.5837379 0.098549716 -0.8549193 -0.514429 0.015567742 0.55557626 0.15570448 0.40325376
-0.5542892 -0.20822775 -0.11410086 -0.035497356 0.017794421 -0.15609343 -0.26587075 -0.09324161
-0.08331518 0.87339646 0.2543196 1.0309417 -0.34534743 -0.44920766 -0.5222628 0.6609139
-0.24401093 0.7387729 -0.39430255 -0.27078253 0.3438159 -0.26218635 0.08992085 0.14811939
0.17345321 0.26950797 -0.10635294 -0.64486486 -0.10431669 -0.2637432 0.42730594 0.5321307
0.452673 -0.48019865 -0.54924333 -0.49779344 0.69456667 0.6994791 0.40029812 -0.05403291
0.21013464 -0.16574077 -0.6350813 -0.38241053 0.21313982 -0.6202151 0.038856827 -0.46127075
0.7815759 0.44320437 -0.35751334 0.17734863 -0.1566553 0.14620225 0.08772323 -0.11697886
00000000: c522 c0be 6257 213f e92b 843f a931 c23e
00000010: 8fd6 7dbf be04 9dbe fe1a d1bc a8c4 003f
00000020: d96f 153f 6fd4 c93d fedb 5abf 9eb1 03bf
00000030: d80f 7f3c 3f3a 0e3f ff70 1f3e 4777 ce3e
00000040: e6e5 0dbf a839 55be b6ad e9bd ad65 11bd
00000050: 9bc5 913c f5d6 1fbe 3620 88be 75f5 bebd
00000060: 26a1 aabd e996 5f3f 2e36 823e e6f5 833f
00000070: 61d1 b0be 8cfe e5be 04b3 05bf a731 293f
00000080: 00de 79be 3920 3d3f 06e2 c9be 02a4 8abe
00000090: a308 b03e 4a3d 86be 6c28 b83d 9cac 173e
000000a0: b89d 313e f3fc 893e 92cf d9bd dd15 25bf
000000b0: fda3 d5bd 5909 87be d8c7 da3e b839 083f
000000c0: c1c4 e73e 99dc f5be 369b 0cbf c8de febe
000000d0: 1fcf 313f 1011 333f e0f3 cc3e 9d51 5dbd
000000e0: 892d 573e f3b7 29be b094 22bf 50cb c3be
000000f0: 5341 5a3e 6bc6 1ebf 5628 1f3d ae2b ecbe
00000100: 5c15 483f afeb e23e fd0b b7be e19a 353e
00000110: 3f6a 20be 0bb6 153e 3da8 b33d 9d92 efbd

gen.3.bias f4 [12]
0.22294648 0.35253075 0.36119393 -0.48174083 0.66461205 1.2182149 0.47871226 -0.43186602
-0.37073106 0.49523717 -0.42910343 -0.74503493
00000000: 154c 643e e97e b43e 69ee b83e bca6 f6be
00000010: 0424 2a3f 77ee 9b3f c619 f53e 8b1d ddbe
00000020: 76d0 bdbe ba8f fd3e 72b3 dbbe 9cba 3ebf

gen.5.weight f4 [6, 12]
0.11260977 0.11031671 0.3309146 -0.3296246 0.89086926 0.8817752 0.39344347 -0.55797416
-0.6431986 0.34000704 -0.65554905 -0.43302402 0.53385574 0.22388445 -0.057284504 0.28179064
0.14276204 0.20534615 -0.07375751 0.010866621 -0.10763897 -0.0034633202 -0.2586175 -0.09015912
0.1726509 0.20644818 0.43115616 -0.4700739 0.8017746 0.7593342 0.33324632 -0.8189862
-0.89395124 -0.2813968 -0.87939304 -0.5386448 0.17798075 0.26306352 -0.042162992 0.06052215
0.42092645 0.3749764 0.043513097 -0.06331459 0.16302224 0.0678748 0.06473622 -0.006784555
-0.78345233 -1.0034233 -0.5531918 0.3014988 -0.09064569 -0.3909051 0.025575858 0.32232606
0.39923576 -0.8481087 0.018598916 0.4089935 0.29842138 0.33886266 -0.6235729 0.22899787
-1.0789353 -0.77874875 -0.47852874 0.69839334 0.8464983 -0.26506728 0.85146 0.28527588
00000000: f39f e63d baed e13d a36d a93e 8ec4 a8be
00000010: 0210 643f 05bc 613f 6c71 c93e 65d7 0ebf
00000020: aaa8 24bf 6715 ae3e 10d2 27bf 53b5 ddbe
00000030: c5aa 083f f741 653e 28a3 6abd dd46 903e
00000040: 3630 123e 4346 523e 2d0e 97bd e909 323c
00000050: d271 dcbd dff8 62bb 8369 84be 58a5 b8bd
00000060: 66cb 303e 2767 533e 80c0 dc3e 87ad f0be
00000070: 1a41 4d3f ba63 423f 439f aa3e 14a9 51bf
00000080: fdd9 64bf 3e13 90be e71f 61bf a0e4 09bf
00000090: 9640 363e 43b0 863e 1ab3 2cbd 13e6 773d
000000a0: ac83 d73e e8fc bf3e ca3a 323d 14ab 81bd
000000b0: 4def 263e f101 8b3d 6c94 843d f950 debb
000000c0: 5590 48bf 2d70 80bf fa9d 0dbf 0d5e 9a3e
000000d0: 73a4 b9bd b724 c8be 7684 d13c ec07 a53e
000000e0: a168 cc3e a71d 59bf c15c 983c 9967 d13e
000000f0: b0ca 983e 687f ad3e 79a2 1fbf 6b7e 6a3e
00000100: 8d1a 8abf 145c 47bf b801 f5be e8c9 323f
00000110: 1db4 583f e6b6 87be 48f9 593f ae0f 923e

gen.5.bias f4 [6]
0.24550614 0.77870995 0.2412123 0.74678165 -0.12817673 -0.3549139
00000000: f665 7b3e 8959 473f 5b00 773e 152d 3f3f
00000010: c340 03be 46b7 b5be

gen.7.weight f4 [2, 6]
0.61388564 0.06923024 0.56835043 -0.26600638 -0.14320442 -0.54915124 0.20259172 -0.25853303
0.43208396 -0.29781857 0.35714412 -0.24930817
00000000: 9c27 1d3f 96c8 8d3d 6a7f 113f fd31 88be
00000010: 2ea4 12be 2d95 0cbf 3474 4f3e 715e 84be
00000020: 1c3a dd3e ad7b 98be 98db b63e a44a 7fbe

gen.7.bias f4 [2]
-0.7758242 -0.17623131
00000000: 6a9c 46bf fb75 34be
