gan2field/IP_flags, IP_DF/versions2/gen_5/1_gen_model.pt (torch, 3959 bytes, 10 tensors)

gen.0.weight f4 [3, 4]
00000000: 2540 ecbb ef94 b83e 37b3 fa3b 0227 c93e
00000010: 9056 293e 92d2 693e 1e15 8a3e 91d7 9d3e
00000020: 9d49 a2bd 75ca 92bd 6297 93bd 42fa 41bd
-0.007209795 0.36051127 0.0076507586 0.39287573 0.16536927 0.22834232 0.26969236 0.30828527
-0.07924197 -0.07167522 -0.07206608 -0.047357805

gen.0.bias f4 [3]
00000000: 8461 f63c 9f3e 3c3e 1a2a 843e
0.030075796 0.18383263 0.2581337

gen.1.weight f4 [6, 3]
00000000: ba4b bd3e caff 553e 2a41 883e b3b0 9a3e
00000010: 3c2d 4bbe ab22 c33e c7c6 61be 4308 09be
00000020: cfc7 15be b665 fe3d 5e09 153e e421 883e
00000030: f480 81bd 9294 88be 3ccd 9d3d d484 3abe
00000040: a6df d3bb e9f3 813e
0.36971837 0.20898357 0.26612216 0.30212936 -0.19841474 0.38112387 -0.22048484 -0.13382058
-0.14627002 0.124217436 0.14554355 0.26588356 -0.06323424 -0.2667585 0.07705161 -0.18214732
-0.00646587 0.253814

gen.1.bias f4 [6]
00000000: fdb3 82be 05f5 8bbe 20ae 97be 7c92 23be
00000010: def8 093f 3399 c4be
-0.25527945 -0.27335373 -0.29625034 -0.15973848 0.53895366 -0.38398132

gen.3.weight f4 [12, 6]
00000000: 318c 0ebe dc3f 87be c764 bc3e fc49 5c3e
00000010: 79da 1b3d 3f2e 6abd 3111 933d 6672 943e
00000020: fd75 b23c c153 443e 9bc5 63ba aa4f afbd
00000030: a9ea 473e eba2 633e 0c7b df3e 6a60 76be
00000040: cf87 96bc dcc9 37be 7fc5 cc3b 806c 8c3d
00000050: f107 b8bd 792b 3dbe 1d09 883c b7eb a33c
00000060: 29e6 e7bd 1126 8abe 5431 63be 70a9 933d
00000070: 2a13 ad3d d624 b3be 5233 6fbe be72 9a3e
00000080: fdf8 6ebe 9e03 e3bd d55b 953e 3cee 1bbd
00000090: 9195 a0be 9a60 10be a3f5 0c3e e6c6 893e
000000a0: 54ba d7be cb0a dc3d e738 26be 5808 183d
000000b0: 854d 29bf 42b9 163e 6f22 883e e79a 68be
000000c0: 447c a8bd ea53 f73e 281d d03e 50fd 36be
000000d0: d3bf d4be e8ed 3f3e 295b 6cbe 011f c8bc
000000e0: 24a7 f9bc ad99 9e3e 9011 8bbe de03 27bd
000000f0: 9b6f 08be e520 a1bd 276d b3bd 9ca4 8fbe
00000100: bd3a abbe 7490 9d3e ed47 8bbe 600f 4cbe
00000110: 3f22 1cbe e841 78be df5a 00bf 1c4c c63e
-0.13920666 -0.26415908 0.36795637 0.21512598 0.03805015 -0.05717301 0.071810134 0.2899353
0.021784777 0.19172575 -0.00086888083 -0.085601166 0.1952311 0.22230117 0.43648565 -0.24060217
-0.018375305 -0.17948097 0.0062491293 0.06856632 -0.0898589 -0.18473615 0.016605908 0.020009859
-0.113231964 -0.26982167 -0.22186786 0.07210052 0.08450921 -0.3498904 -0.23359421 0.30165666
-0.23337169 -0.11084674 0.29171625 -0.038068995 -0.3136411 -0.1409935 0.13765578 0.2690956
-0.42134345 0.10744246 -0.16232644 0.037117332 -0.6613391 0.14719108 0.2658877 -0.2271534
-0.08226827 0.4830621 0.40647244 -0.17870069 -0.415526 0.18743098 -0.2308165 -0.024428846
-0.030475207 0.3097662 -0.27161837 -0.040775172 -0.13323824 -0.07867602 -0.087610535 -0.28055274
-0.3344325 0.3077427 -0.27203313 -0.1992774 -0.15247439 -0.24243891 -0.5013866 0.38729942

gen.3.bias f4 [12]
00000000: d660 853e be55 9c3e 3612 9d3e a92f 01be
00000010: 0b86 b2bc 0bab 283e 2858 fabe a897 5c3e
00000020: a41e 11bf 7459 173e 7154 1bbe e040 bd3e
0.26050442 0.30534166 0.30677956 -0.12615837 -0.021792432 0.16471498 -0.48895383 0.21542227
-0.5668738 0.14780217 -0.1516893 0.36963558

gen.5.weight f4 [6, 12]
00000000: 57e7 5e3e d27e 9a3e 7b19 993e 5aa0 80be
00000010: c212 a7bb c9c3 933e f586 94be dbb9 fe3a
00000020: 4cca 01bf 40e0 223e 5206 15be 37e9 9b3e
00000030: ab7d 983d 0d3f 8c3e ba8c 493c a593 693d
00000040: 5c81 0b3e d465 b2bd 8d11 ebbe d599 46bd
00000050: a91e ebbe b997 033d 32ef 63be 2194 a53d
00000060: 3094 84bd f9dc 88bc e19c 99be 640b 98bc
00000070: 28e4 3abe 2df0 a83d 34e9 043e 5d54 cebd
00000080: 709e 79be 30a9 af3d 536f 503e 6383 3dbe
00000090: b276 c53e 8571 7abc fdfe 8c3e b03f 78be
000000a0: a08d 0b3e 2b91 a43b 005c 44be 66d3 0e3f
000000b0: 9e19 c2be 10a3 25bc f9f9 82be 82ed d73b
000000c0: 2f32 6f3e 491f 6b3e 92fd 423e d08a 8bbe
000000d0: c563 de3d 483d 4ebd 8bea a2be 2800 b13d
000000e0: 0ad1 d7bd 7088 bc3d 3468 f8bd 7c8e bc3e
000000f0: c8bc 0abe 8afa 36bd bb56 eabd e466 133e
00000100: 3f1e 233e bf82 0cbd 1c3a d23b 4ee4 80be
00000110: 6f40 883c 5e7a 91be 184e 82be 2b6d b5bd
0.21767937 0.3017488 0.29902253 -0.2512234 -0.0050986717 0.2886031 -0.29009214 0.0019434051
-0.50699306 0.15905857 -0.14553192 0.30451366 0.07445844 0.27391854 0.012301618 0.05702557
0.13623565 -0.087108284 -0.45911828 -0.04848655 -0.4592183 0.032127116 -0.22259215 0.08084894
-0.06473577 -0.01670693 -0.30002502 -0.018560119 -0.18251097 0.08248935 0.12979585 -0.10074685
-0.24376845 0.08577192 0.20354967 -0.18507151 0.3856712 -0.015285854 0.2753829 -0.24243045
0.13628244 0.005022188 -0.1917572 0.5579132 -0.3791017 -0.010109678 -0.2558134 0.0065895924
0.23358987 0.22961153 0.19042042 -0.27254343 0.10858873 -0.05035141 -0.31819567 0.08642608
-0.10537918 0.09205711 -0.1212925 0.36827457 -0.13548577 -0.044672526 -0.11442324 0.14394718
0.15929507 -0.034304377 0.0064156186 -0.25174183 0.016632287 -0.2841367 -0.25450206 -0.08858713

gen.5.bias f4 [6]
00000000: b761 113f a089 853e e560 753e e27d 903e
00000010: ee18 5d3e bc30 d7bb
0.56789726 0.26081562 0.23962744 0.2822104 0.21591541 -0.006567089

gen.7.weight f4 [2, 6]
00000000: 4bfd 903d 4dc2 683e d1fa f13d 4bae b33e
00000010: b193 423e 8e02 033d e587 ac3e f37c 7d3e
00000020: 978c 4dbe 4654 46be 5735 d5bd 7195 43be
0.07079562 0.2273037 0.118154176 0.35093912 0.19001652 0.03198486 0.3369743 0.24754696
-0.20073162 -0.19368085 -0.104105644 -0.19099976

gen.7.bias f4 [2]
00000000: 10a9 613e 6cec febd
0.22037148 -0.12447438
