gan2field/IP_flags, IP_DF/versions2/gen_1/0_gen_model.pt (torch, 3959 bytes, 10 tensors)

gen.0.weight f4 [3, 4]
000000 a0 e6 31 3e 3c d9 ee bc 3b 4d df 3c e5 e6 8d 3d
       0.17373133 -0.02915632 0.027258506 0.06928805
000010 e4 2b 63 bd 39 8e 54 3e 73 a0 04 be d6 76 52 be
       -0.05546178 0.20757379 -0.12951832 -0.20553145
000020 bc a4 8e 3d 72 b2 58 3e 0b 83 e4 3d 1a 93 ab bd
       0.06965014 0.21161821 0.11157807 -0.08377667

gen.0.bias f4 [3]
000000 83 d9 81 bf 6e 1f c8 3e b7 58 3b bf
       -1.0144504 0.3908648 -0.73182243

gen.1.weight f4 [6, 3]
000000 38 39 94 3f a2 4f d1 be 0a 88 0a 3f 4a 0e bd bd
       1.1579962 -0.40881068 0.5411383 -0.09231241
000010 94 3b dc be 8a 28 fb 3e 6d 28 5e 3e 97 1f 93 be
       -0.43014205 0.49054366 0.21695109 -0.2873504
000020 29 a7 db be 1b 5e 51 3f 90 05 6d bf 23 94 6c 3f
       -0.4290097 0.8178422 -0.9258661 0.9241354
000030 18 2a 33 3f df ab 63 bd 62 41 42 3f 1f 57 45 bf
       0.69986105 -0.05558383 0.75881016 -0.7708606
000040 d9 09 3a be 52 3f e4 ba
       -0.18167819 -0.001741389

gen.1.bias f4 [6]
000000 9c ab 0a bf 8b 68 5d bf e8 90 ab be 17 1c 54 be
       -0.54168105 -0.86487645 -0.33508992 -0.2071384
000010 8d 47 8b bf ae 9f 18 3f
       -1.088121 0.5961865

gen.3.weight f4 [12, 6]
000000 dd c8 4c bf 2b 9b 2a bf 72 c9 03 bf 2f e8 4d bf
       -0.79993993 -0.6664302 -0.51479256 -0.8043241
000010 53 1c 8b bf 38 1f 82 3e a9 d9 ff be f6 84 68 be
       -1.0868019 0.25414443 -0.4997075 -0.2270697
000020 21 a6 2b bf dc 3f ce be 26 df 49 bf 2c 6f 04 3f
       -0.6705037 -0.40283096 -0.7885612 0.51732135
000030 2e f5 fa be 63 49 05 bf 0c 79 52 be 95 fa a4 be
       -0.49015182 -0.52065104 -0.20553988 -0.3222243
000040 60 0a 45 bf 93 41 7b 3e 1f 3b c2 3e 74 8b bf 3e
       -0.76968956 0.24536733 0.3793573 0.37411082
000050 86 c2 cf 3e bd d4 5f 3f 60 bd 1f 3f 75 79 4c be
       0.40578097 0.8743399 0.6239834 -0.19968207
000060 96 ec 19 3f 30 91 f6 3d 8a 3e 04 be ce 1e 37 3f
       0.60126626 0.12039411 -0.12914482 0.7153138
000070 67 73 ac 3d d1 aa b7 be c6 27 59 3f ca ca 00 3f
       0.08420449 -0.3587251 0.84826314 0.5030943
000080 5b 1d dd 3e 9b bc 03 3f 6b 95 38 3f 50 e0 92 be
       0.4318646 0.51459664 0.72102994 -0.28686762
000090 85 5c f3 bd fc 27 e4 be 55 20 aa 3d c8 d2 e6 be
       -0.11882881 -0.44561756 0.08306948 -0.45082688
0000a0 92 f2 42 be 5a db e5 3e 93 97 53 3f 5d 8e d8 3e
       -0.19037846 0.44893914 0.8265316 0.42296115
0000b0 3d ec 81 3e f2 c5 ba 3e 23 1e 07 3f a1 27 18 bf
       0.25375548 0.36479145 0.5278036 -0.5943547
0000c0 7d 64 3e bf de 0c e8 be f8 41 87 be 7a 09 d4 bd
       -0.7437208 -0.45322317 -0.26417518 -0.1035337
0000d0 de cd a2 be 9e 4a ab 3e a6 c1 76 3f a1 90 d5 3d
       -0.3179769 0.33455366 0.96389234 0.104279764
0000e0 ac ff c9 bd 4e 6e e5 3e a8 1d e4 3e e9 13 ae be
       -0.09863219 0.44810718 0.44553876 -0.33999565
0000f0 a5 24 04 3f 53 2b 4b 3f 17 1c b3 3e 01 6e 34 3f
       0.51618415 0.7936298 0.34982368 0.7048035
000100 c0 5e 82 3f 8d de c1 be 6c 32 48 bf 2c e5 ab bd
       1.0185165 -0.37865105 -0.7820194 -0.083933204
000110 2e 0c a3 be 74 29 31 bf c6 44 a7 be 28 93 df 3e
       -0.3184523 -0.6920388 -0.32669657 0.4366696

gen.3.bias f4 [12]
000000 2e c7 2b 3e 56 f9 14 3f 2b f9 65 3d 54 a7 69 bf
       0.167752 0.58192956 0.05614583 -0.9127095
000010 5a 59 44 bd a0 da 52 bf 83 28 e3 3e a4 46 81 bd
       -0.047936775 -0.82364845 0.44366845 -0.06312302
000020 07 8f 96 3e 72 34 a0 3d 18 d3 b5 be ac 96 9b 3d
       0.29405996 0.07822503 -0.35512614 0.07597098

gen.5.weight f4 [6, 12]
000000 27 1e 1e 3f df db db 3e 4c f5 8d 3d 4d ea 45 bf
       0.6176476 0.42941186 0.06931552 -0.7731064
000010 bb 03 25 be 3c 5f 20 bf 51 36 1c be 50 cb a8 bd
       -0.16114704 -0.62645316 -0.15255095 -0.08241904
000020 7d cd 1f be 3d b4 28 3d d5 8c da be f9 f7 9f bc
       -0.15605731 0.041187514 -0.4268557 -0.019527422
000030 5f a8 0c be c2 28 d3 3c e4 32 3f bf 34 d3 92 3d
       -0.13736103 0.02577627 -0.7468703 0.0716919
000040 a5 2c 35 3f 6c a0 1b 3e 46 1c 1c bf 01 2d 39 3f
       0.7077125 0.15197915 -0.6098064 0.72334296
000050 1b b1 87 bf 33 66 fe 3e 52 76 9d 3d 64 79 e3 be
       -1.0600923 0.49687347 0.076885834 -0.4442855
000060 58 d5 08 3f 22 8d 32 3f ec 80 82 3e d8 5b 80 be
       0.53450537 0.697466 0.25488985 -0.2507007
000070 4f 78 38 be a9 ee 3d bf a0 1c 2b 3e 97 ab 45 be
       -0.18014644 -0.7419229 0.16710138 -0.19303738
000080 0d 47 5d 3d 7c 2b 12 bf 37 87 c6 be 0a 7e e0 3e
       0.054022837 -0.570976 -0.38775036 0.4384616
000090 fa d9 8b be c8 63 f6 be f6 ce 3a bf e9 05 38 3e
       -0.2731474 -0.48123002 -0.7297205 0.17971005
0000a0 33 a4 c5 3e 61 4f 04 3e 69 99 cd be 49 bc 3d 3f
       0.38601837 0.12920906 -0.40156105 0.74115425
0000b0 65 75 13 bf 7e 1f c7 3e 1d c3 8a 3e de 65 17 bf
       -0.57601005 0.38891214 0.27101985 -0.5913981
0000c0 dd 23 0d bf b9 bf 0a bf a5 73 85 be 55 d8 89 3e
       -0.5513285 -0.54198796 -0.26064792 0.2692286
0000d0 e4 9b 8e 3b e9 b2 49 3f 82 bd 01 bd f7 c1 fd 3d
       0.0043520797 0.7878862 -0.03167487 0.123905115
0000e0 a9 2f bf bd 94 43 ab 3e 33 6e 3e 3f a5 9c b7 be
       -0.09335262 0.33449996 0.743869 -0.35861698
0000f0 7d 1b 05 bf ce 02 02 bf 35 1b 40 bd 2b 2e 20 3f
       -0.5199507 -0.5078553 -0.046900947 0.62570447
000100 29 81 cc 3d 28 8a e1 3e 72 32 3f 3d 68 c6 60 3e
       0.09985573 0.44050717 0.046678968 0.21950686
000110 70 10 99 bd 88 14 02 3f 72 41 3e 3f 4f 9c 84 be
       -0.07473838 0.5081258 0.7431861 -0.25900504

gen.5.bias f4 [6]
000000 64 1b 4b 3e f9 f2 1b be c5 9c be bd 02 4c b2 be
       0.19834667 -0.15229405 -0.09307245 -0.34823614
000010 3d 8c 3c be 83 c0 01 bd
       -0.18412872 -0.031677734

gen.7.weight f4 [2, 6]
000000 25 4b df 3e 05 28 96 3e 5d a6 03 3f b7 04 24 3d
       0.43612018 0.29327407 0.51425725 0.04004356
000010 1d a7 b5 be 91 d0 0b bf 1d 99 65 3d 72 f4 95 3e
       -0.3547906 -0.5461512 0.056054223 0.2928806
000020 8d cc 3a 3e 31 3d 9d bd 03 26 25 be de 39 d6 be
       0.18242092 -0.07677687 -0.16127782 -0.41841024

gen.7.bias f4 [2]
000000 39 af 4a be 9d 54 af bd
       -0.19793405 -0.085610606
