gan2field/IP_flags, IP_DF/versions2/gen_1/1_gen_model.pt (torch, 3959 bytes, 10 tensors)

gen.0.weight f4 [3, 4]
000000 0a 37 21 bf 3e dc 61 bf 38 ed e1 3d 2f 65 cc 3e
       -0.6297461 -0.8822669 0.11031574 0.39920947
000010 ec 8e a1 3e 5e ca 06 3f 9a 4d 3b 3f 5b 46 66 bf
       0.31554353 0.5265254 0.73165286 -0.89951104
000020 9a 84 1e 3f 6a fe cd 3d c2 94 ce 3d cd 33 5e bf
       0.61921084 0.10058291 0.10086967 -0.8679779

gen.0.bias f4 [3]
000000 75 0a 32 be 6b bf a6 be 2e af 1c be
       -0.17386802 -0.32567915 -0.15301201

gen.1.weight f4 [6, 3]
000000 d9 79 dd be 1b 14 57 bf 3a ce 97 3e 80 51 60 bd
       -0.43257025 -0.84015054 0.29649526 -0.054765224
000010 9c 7e 22 bf 89 8d 98 3d fa 0c f6 bb 8f b0 99 3d
       -0.6347444 0.07448871 -0.007508871 0.07504379
000020 07 49 05 be 01 24 ac be 40 29 7d 3f d1 da 34 be
       -0.13016139 -0.3362122 0.9889107 -0.17661597
000030 50 b2 26 3e bb 89 f6 be 41 36 26 bf 39 90 33 bd
       0.16278958 -0.48151955 -0.64926535 -0.043838713
000040 7e 7e 38 bf c1 1f 3c bd
       -0.7206801 -0.04592872

gen.1.bias f4 [6]
000000 a4 ee e7 bc f5 95 9b 3e 76 1a 7f 3f 92 c3 08 3f
       -0.028312035 0.30387846 0.9964975 0.53423417
000010 8d b6 9b be c2 da c4 3e
       -0.30412713 0.3844815

gen.3.weight f4 [12, 6]
000000 9a bc 06 be d8 b0 16 bf 6f 70 43 bf 60 19 04 bf
       -0.13157883 -0.5886359 -0.76343435 -0.5160122
000010 91 9f 80 bd 1d 47 fb bd 80 a3 3c 3e 65 45 b7 be
       -0.06280435 -0.12269423 0.18421745 -0.3579513
000020 4f dd f7 be a6 9a 8a 3d da 4d 64 3e e9 bb 21 bd
       -0.48411033 0.06767778 0.22295323 -0.039485846
000030 82 43 8d 3e fd b2 5a be 09 18 0e 3f 38 fe 52 3d
       0.27590567 -0.21357341 0.55505425 0.051511973
000040 b6 a3 f1 bd 3c 8a e5 3e 2d 81 96 be 72 e2 49 3e
       -0.117988035 0.44832027 -0.29395428 0.19715288
000050 e3 37 a1 3e 17 3e b7 3d 1f 2a cd bc 42 2f 82 3d
       0.3148795 0.089473896 -0.025044499 0.0635667
000060 6b f0 7b bd 13 02 39 3e 45 9a 5d bf 6d 10 c8 ba
       -0.061508577 0.18067198 -0.8656352 -0.0015263684
000070 e2 9a 23 3d 62 9b b1 be 04 6f 57 3e af b4 09 3e
       0.03994263 -0.3468886 0.21038443 0.13447832
000080 f9 37 1b 3f 3b 3a 1f 3e 05 ed 24 be fd b6 59 bd
       0.6063228 0.15549557 -0.16106041 -0.053153027
000090 d0 20 4d be 38 f1 db bd 5a 1d 14 bf 50 57 69 be
       -0.20032048 -0.10739368 -0.57857287 -0.22787213
0000a0 c4 69 d0 bd 7b 8a 3c bd a2 ff 66 be cf 61 d5 3b
       -0.10176423 -0.046030503 -0.22558454 0.006511904
0000b0 df aa 33 bf ba fd 9e 3d 2c 73 00 3d f4 84 24 3e
       -0.70182604 0.07763238 0.031359836 0.16066343
0000c0 c2 28 9b be 84 c7 4e 3d b8 20 23 bf 90 58 7f 3d
       -0.30304533 0.05048324 -0.637218 0.06234032
0000d0 ba 3a 16 be 72 24 e9 3d 74 56 39 3e 0a e9 d6 be
       -0.1467084 0.113839045 0.18099385 -0.4197467
0000e0 68 39 68 bf 43 be 09 3d 61 9e d5 bc 66 e0 ab bd
       -0.90712595 0.033628713 -0.026076498 -0.0839241
0000f0 6b a4 ce be 08 7c bf bd 94 5c d3 be 2a 16 64 3e
       -0.40359816 -0.09349829 -0.4128157 0.2227408
000100 4a cd 72 be 6f db 8c be e4 75 9f bd 8b ce d2 3e
       -0.23711124 -0.27511165 -0.07786158 0.41173205
000110 15 25 25 be c4 28 39 3d 20 a0 fa 3d c6 de 06 3d
       -0.16127427 0.045204893 0.12237573 0.032927297

gen.3.bias f4 [12]
000000 ad 13 27 bf 16 e7 3d bf 01 96 c4 3c 42 db b9 be
       -0.652644 -0.74180734 0.023997309 -0.36300093
000010 e6 02 75 bf 53 a7 50 3f fc f4 51 bf 6a 12 3c bf
       -0.9570755 0.81505316 -0.8201444 -0.734656
000020 a7 8f 1e bf ef 3f 69 bf b4 8d a0 be 7c 40 60 3e
       -0.61937946 -0.9111318 -0.3135811 0.21899599

gen.5.weight f4 [6, 12]
000000 43 80 88 be 6a 90 26 bf 1f f6 22 3e 1e f7 80 be
       -0.26660356 -0.6506411 0.159142 -0.25188535
000010 47 8f 24 bf 62 b2 f7 3d f2 d5 26 bf 88 06 32 bf
       -0.64281124 0.12094571 -0.65170205 -0.69541216
000020 56 56 fc be 33 41 2b bf f7 79 88 be fb 20 b2 be
       -0.4928462 -0.6689636 -0.26655552 -0.34790787
000030 5a dc 7a be 55 f4 7b be 24 25 7a 3d 3e 74 37 be
       -0.2449812 -0.24604924 0.061070576 -0.17915437
000040 db 63 ea be 57 f0 bc bb b4 c5 c3 be 7a 02 9c be
       -0.4577931 -0.0057659554 -0.38236773 -0.3047064
000050 5f 59 13 bf de 51 7d 3b 3a fb fd 3d f5 17 61 3c
       -0.57558244 0.0038653533 0.12401433 0.013738622
000060 48 12 ac 3e 95 f1 8c 3d a6 b8 cf be 89 de 83 3d
       0.33607697 0.068820156 -0.40570563 0.064389296
000070 e2 ea e4 3e 76 62 07 bf 1f 2b 32 3e a4 9b 63 be
       0.4471045 -0.52884614 0.17399262 -0.22227341
000080 24 ee 04 bd 40 27 19 3f 8f 2a 2c 3e 25 d9 64 be
       -0.03245367 0.59825516 0.1681311 -0.22348459
000090 d4 ee 17 3d b1 23 5d be e8 52 1f 3d e1 1f 95 bd
       0.037093 -0.21595646 0.038897425 -0.07281471
0000a0 4e 32 85 be aa 50 29 3e d1 5b 20 be d6 7c ca be
       -0.26014942 0.16534677 -0.15660025 -0.39548367
0000b0 ca 5b 70 be 9f 2a 86 be 01 d0 09 be 99 8b 27 be
       -0.23472515 -0.26204392 -0.13458253 -0.16361846
0000c0 97 e8 79 3e 2d 49 9d 3e dc 47 80 3c be 50 39 be
       0.24405132 0.3071989 0.015659265 -0.18097207
0000d0 53 64 15 3e e9 ad a4 bd 94 52 f4 3e 1c 98 a0 3e
       0.14589052 -0.08040983 0.47719252 0.3136605
0000e0 3b b7 2e bd 6c c9 64 3d 61 56 8c be 20 e1 82 be
       -0.04265521 0.055856153 -0.27409652 -0.25562382
0000f0 c3 7e 18 3f c3 6a ea 3e e8 dc 0d be ad be 8a be
       0.59568423 0.45784578 -0.138538 -0.270986
000100 7f e3 da 3e 9e e5 b2 be b8 4a b1 3e 0b c1 0c 3e
       0.4275169 -0.3494081 0.34627318 0.13745515
000110 f7 43 9a 3e 58 70 bc 3d 59 2d 20 bd c5 d7 29 3c
       0.30129978 0.09201115 -0.039105747 0.010366385

gen.5.bias f4 [6]
000000 45 cc 02 3f ca b7 14 3f 87 22 22 be 64 1e 0b 3f
       0.5109294 0.5809294 -0.15833484 0.5434325
000010 1f 96 11 bf 8b e6 a4 bb
       -0.5686969 -0.0050323657

gen.7.weight f4 [2, 6]
000000 cf 59 52 be 5b cc a2 bd 4f c3 b1 be c1 ed 75 3d
       -0.20542072 -0.07949134 -0.3471932 0.060041193
000010 a7 07 ac be 6f 40 e3 be 85 ee 33 3f 46 15 ba 3e
       -0.33599588 -0.44385096 0.70285827 0.36344355
000020 8a 98 21 3e 1d c9 90 3e 43 82 61 be fc c8 b6 3e
       0.15780845 0.28278437 -0.22022347 0.35700214

gen.7.bias f4 [2]
000000 c6 05 c5 3e 64 25 85 bd
       0.38480967 -0.06501272
