gan2field/IP_flags, IP_DF/versions2/disc/0_disc_model.pt (torch, 3907 bytes, 9 tensors)

disc.0.weight f4 [4, 2]
1.7710867 0.3642138 1.0054426 -0.52948236 0.68820906 -1.6957835 -0.56212586 -1.1473602
00000000: f8b2 e23f 3b7a ba3e 58b2 803f 288c 07bf
00000010: 782e 303f 6f0f d9bf 7be7 0fbf b3dc 92bf

disc.0.bias f4 [4]
-0.72631496 0.8810818 0.611331 -1.0037072
00000000: c7ef 39bf 948e 613f 3080 1c3f 7a79 80bf

disc.1.weight f4 [8, 4]
-0.45252097 -1.363592 -0.5912665 0.5735712 -0.56793183 0.7102623 0.15470192 -0.7135699
0.49913403 0.42703465 0.117048964 -0.13757505 -0.357399 0.38565868 0.23949024 -0.61295706
1.0330551 -0.288035 -1.4886719 -1.0628866 2.2140687 -0.5788429 -1.0344362 0.33544698
0.3655415 0.270055 2.0048387 0.014867979 -2.9638526 0.25278315 0.26953575 -0.28793943
00000000: d4b0 e7be 2f8a aebf 3e5d 17bf 90d5 123f
00000010: fb63 11bf c0d3 353f 2e6a 1e3e 84ac 36bf
00000020: 7f8e ff3e 49a4 da3e 5eb7 ef3d 79e0 0cbe
00000030: 00fd b6be 0e75 c53e ee3c 753e c1ea 1cbf
00000040: 263b 843f 5379 93be cd8c bebf ab0c 88bf
00000050: 4db3 0d40 0c2f 14bf 6868 84bf b5bf ab3e
00000060: 4128 bb3e a644 8a3e 474f 0040 d398 733c
00000070: c3af 3dc0 cb6c 813e 9700 8a3e cc6c 93be

disc.1.bias f4 [8]
-0.83966196 0.5298246 -0.06382309 0.538383 0.4850577 -0.650237 -0.063373715 0.059870213
00000000: 16f4 56bf 96a2 073f aeb5 82bd 78d3 093f
00000010: 7c59 f83e ef75 26bf 14ca 81bd 783a 753d

disc.3.weight f4 [8, 8]
1.2145989 0.5629695 -0.18027571 0.7142977 -1.329362 0.9487576 -0.03788608 -0.45114982
0.10985605 0.19864297 0.19678134 0.24897268 -1.2483774 1.0861068 0.45009422 -0.2621561
0.4494434 -0.7195525 -0.120356426 -0.9974 -0.24043621 0.32578522 0.11399988 -0.28227866
1.3449651 0.07012148 -0.06373214 0.089870706 -1.8435373 -0.14040333 0.50336474 -0.16394052
-0.91994613 -0.4732908 0.41838667 -0.651616 0.70145077 -0.87511045 -0.019830663 0.40352967
-0.18131796 -0.10905699 0.08860199 -0.02364174 0.5849857 -1.4114984 -0.1144899 0.9449606
-0.23198573 -0.36904272 -0.17823106 -0.05594549 -0.06585005 1.3570554 0.13794342 -1.4207456
-0.50451076 0.6805724 0.49405798 0.94884187 0.15420271 -0.41844624 -0.3152906 0.3877619
00000000: fa77 9b3f c51e 103f 329a 38be 37dc 363f
00000010: 8928 aabf c7e1 723f 6f2e 1bbd 1cfd e6be
00000020: 35fc e03d 1069 4b3e 0c81 493e b2f2 7e3e
00000030: d5ca 9fbf 8c05 8b3f c072 e63e 5339 86be
00000040: 721d e63e 9834 38bf 6e7d f6bd 9b55 7fbf
00000050: e934 76be 52cd a63e c578 e93d d486 90be
00000060: d127 ac3f da9b 8f3d ff85 82bd 220e b83d
00000070: 08f9 ebbf e4c5 0fbe 83dc 003f 06e0 27be
00000080: 9781 6bbf 2c53 f2be c736 d63e 4ed0 26bf
00000090: 4792 333f 3d07 60bf ea73 a2bc 719b ce3e
000000a0: 6aab 39be 4559 dfbd f674 b53d 53ac c1bc
000000b0: 9fc1 153f fbab b4bf ae79 eabd f0e8 713f
000000c0: ab8d 6dbe 2bf3 bcbe 3482 36be 1927 65bd
000000d0: 64dc 86bd feb3 ad3f 0a41 0d3e feda b5bf
000000e0: 9e27 01bf fe39 2e3f 2bf5 fc3e 4de7 723f
000000f0: 51e7 1d3e 963e d6be c56d a1be ba88 c63e

disc.3.bias f4 [8]
1.0086377 0.103865854 -0.77781504 0.6513882 -0.71697664 -0.058814555 0.18729535 0.5861074
00000000: 0a1b 813f 9fb7 d43d e31e 47bf 61c1 263f
00000010: c88b 37bf 88e7 70bd 5aca 3f3e 220b 163f

disc.5.weight f4 [4, 8]
-1.4932482 -0.51669353 0.59168035 -1.3074219 0.93675876 0.584964 -0.3200717 -0.41724953
-1.6487008 -0.622748 0.59736997 -1.223642 0.79995847 0.4582536 -0.45844758 -0.4565286
0.068164386 -0.10650921 0.8844593 -0.034000684 0.16204323 -0.06310671 -0.002464847 -1.1711973
1.4019426 0.70888627 -0.18944213 1.210304 -1.0318301 -0.63962364 0.18683206 0.7251732
00000000: c222 bfbf 0746 04bf 5d78 173f 9a59 a7bf
00000010: 6ccf 6f3f 33c0 153f 70e0 a3be bba1 d5be
00000020: a108 d3bf 6a6c 1fbf 3ded 183f 4da0 9cbf
00000030: 14ca 4c3f 37a0 ea3e a4b9 eabe 1ebe e9be
00000040: c599 8b3d 8021 dabd ed6b 623f 4d44 0bbd
00000050: a9ee 253e 173e 81bd 4589 21bb cbe9 95bf
00000060: db72 b33f 9279 353f 1efd 41be 3eeb 9a3f
00000070: 0213 84bf 60be 23bf e750 3f3e f3a4 393f

disc.5.bias f4 [4]
-0.18500836 -0.056258913 -0.7844079 0.28171378
00000000: d572 3dbe bf6f 66bd f5ce 48bf ca3c 903e

disc.7.weight f4 [1, 4]
3.610594 3.9849267 2.0596645 -4.113449
00000000: f913 6740 0a09 7f40 8bd1 0340 60a1 83c0
