gan2field/IP_flags, IP_DF/versions2/disc/1_disc_model.pt (torch, 3907 bytes, 9 tensors)

disc.0.weight f4 [4, 2]
000000 56 c9 fc be 24 eb 19 3f 04 c5 82 bf ae 63 b7 bf
       -0.49372357 0.6012442 -1.0216374 -1.4327295
000010 cc 11 45 be d7 c6 3d 3f 4c 6e 1b bf b8 c2 76 3f
       -0.1924507 0.7413153 -0.60715175 0.9639087

disc.0.bias f4 [4]
000000 14 20 99 be 7f c1 16 3f 3d 72 47 bf 4d fd 48 bf
       -0.29907286 0.58889 -0.7790869 -0.78511506

disc.1.weight f4 [8, 4]
000000 a1 c6 47 bf d0 8e 97 3e 0b d9 4f bf ef d6 86 bf
       -0.7803746 0.29601145 -0.81190556 -1.0534343
000010 d8 5c 93 bf 8c 1e c7 3e 62 f0 75 bf 34 88 2d c0
       -1.1512709 0.38890493 -0.9606992 -2.7114382
000020 8f 92 d5 3e 3a 52 f4 bf 2e 9e 19 3f 52 12 36 3f
       0.41713378 -1.9087594 0.6000699 0.71121705
000030 2d 5e 6b bf f5 2e 77 bf d9 45 c6 3b d5 54 bf be
       -0.91940576 -0.96556026 0.006050807 -0.3736941
000040 af 2c cf be 89 95 90 3f 70 45 06 bf 63 00 4d 3d
       -0.40463778 1.1295635 -0.52449703 0.050049197
000050 8c 62 33 3f 85 7a ca 3d 7e fb 0c 40 02 53 d1 3f
       0.70072246 0.0988665 2.2028499 1.6353457
000060 e7 e6 d3 3d 23 88 01 40 ce 4a d7 bd 01 a9 98 be
       0.103467755 2.0239341 -0.10512315 -0.2981644
000070 76 95 17 be e8 4f a3 3f c1 60 37 bf 8c 77 c3 bd
       -0.14803109 1.275876 -0.7163201 -0.09544286

disc.1.bias f4 [8]
000000 6b ba 94 3f 3f aa 42 bd 29 61 57 3e 30 4c 2a bf
       1.161939 -0.04752564 0.21033157 -0.665225
000010 bf 42 40 3f bc bd 9b bf a2 e1 d9 3e 25 00 80 3f
       0.75101846 -1.2167277 0.42554957 1.0000044

disc.3.weight f4 [8, 8]
000000 d6 b7 f2 3d 0d f3 6b 3f b0 fe 5f bf 6a d8 f0 be
       0.1185147 0.9216774 -0.87498 -0.4704011
000010 8e 52 d4 3f 76 32 1e be 37 a9 80 3f 1d ea 97 3f
       1.6587694 -0.15448937 1.005164 1.1868321
000020 99 1e 8d be 56 db 0c bf e0 bd 45 3d dd 83 08 bf
       -0.27562407 -0.5502218 0.048276782 -0.5332621
000030 b4 0d cd bc dd a0 c4 be 75 f0 3a bf 90 b3 44 be
       -0.025030948 -0.3840398 -0.7302316 -0.19209123
000040 e5 9e 1e bf 51 ac 3f 3f 5b 8f 22 bf 07 0e 8d 3e
       -0.61961204 0.7487231 -0.63499993 0.27549765
000050 fb cd 99 be ab 8e 4a 3f 70 a1 19 3e b8 01 76 be
       -0.30039963 0.79123944 0.1500299 -0.24024093
000060 af 48 35 bf 60 83 6c 3e 94 c4 b3 be c5 a6 d6 be
       -0.7081403 0.2309699 -0.35110915 -0.4192411
000070 cc e4 23 3f 66 41 e8 3e cd 34 56 3f ec eb fa 3e
       0.6402099 0.45362395 0.8367432 0.4900812
000080 90 38 87 3e dc 7c 65 3e d1 9d 04 40 f6 98 11 3f
       0.2641034 0.22410911 2.0721323 0.56874025
000090 68 70 cc bf 10 0d 6e bf f3 47 c9 bf 13 77 da bf
       -1.5971804 -0.9298868 -1.5725082 -1.7067589
0000a0 d8 2b 2c 3e a5 1b 1e 3f 6e 74 78 be 8a dc 58 3e
       0.168136 0.6176093 -0.24263164 0.21177879
0000b0 50 53 35 3e 3b 23 45 3e 40 bc 04 3f 1c 29 42 be
       0.17707562 0.1925172 0.51849747 -0.18960994
0000c0 c3 b0 b7 3f 2a 56 7b bf ee a4 3a 3e c5 db b3 bf
       1.4350818 -0.9817835 0.18226978 -1.4051443
0000d0 42 a5 ee 3f 0a 84 39 bf ef 17 6a be 64 32 c8 3f
       1.8644183 -0.724671 -0.22860692 1.5640378
0000e0 4f 17 c1 be 35 b8 5e bc 38 3d bb 3d 44 f4 62 be
       -0.37713096 -0.013593723 0.09142536 -0.22163492
0000f0 bf de a2 3e 5e 37 91 bd 07 0c 2b bf 6f 7d 74 be
       0.31810567 -0.070906386 -0.6681523 -0.23875974

disc.3.bias f4 [8]
000000 3f 59 e5 3e 54 39 b4 bf 6f ff bd 3f 76 7a 81 3f
       0.44794652 -1.4079995 1.4843577 1.0115497
000010 b2 e7 f0 3d 41 0d b6 3f 78 25 f6 3c 8a 5b bc bf
       0.117629424 1.4222795 0.030047163 -1.4715436

disc.5.weight f4 [4, 8]
000000 af 65 b4 bf 03 41 04 3f 59 d8 ac bf dc 53 4c bf
       -1.4093531 0.516617 -1.3503524 -0.7981546
000010 bc 63 5b bf 06 84 28 bf 92 71 a8 3f 89 d3 f2 3e
       -0.8569906 -0.6582645 1.3159659 0.47427014
000020 04 3d 7b bf 72 10 70 3f 1e ae db bf 1b bd 52 bf
       -0.9813998 0.93775094 -1.7162511 -0.823198
000030 5e 00 62 bf 25 c2 1a bf ca 73 72 3f c4 ee 2b 3e
       -0.8828181 -0.6045249 0.9470793 0.167903
000040 86 f0 b7 bf d6 90 41 3f f4 ad a8 bf 58 92 51 bf
       -1.4370277 0.7561163 -1.3178086 -0.8186393
000050 80 ad 86 bf 65 3d 07 bf fc 32 a0 3f a9 09 be 3e
       -1.0521698 -0.52828056 1.2515559 0.37116745
000060 cb 35 9f 3f 1b 1d 21 bf d4 b4 b1 3f cb 2c 3a 3f
       1.2438291 -0.62935036 1.3883309 0.727246
000070 a8 ce 3d 3f 2d ef d7 3e fb 74 a1 bf 76 50 03 bf
       0.7414346 0.42174664 -1.2613825 -0.5129465

disc.5.bias f4 [4]
000000 50 f6 bb bf 52 78 98 bf f1 cd b2 bf eb 0a ae 3f
       -1.4684544 -1.1911719 -1.3969098 1.3597082

disc.7.weight f4 [1, 4]
000000 95 96 7a 40 20 12 3c 40 03 39 48 40 11 d9 70 c0
       3.9154408 2.9386063 3.1284797 -3.7632487
