gan2field/IP_flags, IP_DF/versions2/gen_7/0_gen_model.pt (torch, 3959 bytes, 10 tensors)

gen.0.weight f4 [3, 4]
00000000: 6491 6cbe de1f a1bd 0914 22be c9f5 343e
00000010: 8c5f 373f 1810 0c3e fe3f 573f 2c6f 0fbe
00000020: 9126 5f3e 2e13 a9bd 4d83 c83e dac6 1b3e
-0.23102337 -0.07867406 -0.15827955 0.17671885 0.7163017 0.13678014 0.8408202 -0.14007252
0.21792056 -0.08255611 0.39162675 0.15212575

gen.0.bias f4 [3]
00000000: 52f6 5e3f 2678 083f 21d8 42bf
0.87094605 0.5330833 -0.76111037

gen.1.weight f4 [6, 3]
00000000: 2a87 553f 6979 d63e a3ab 40bf b4ea babe
00000010: df70 3fbf 1aee d8be 3363 efbe 204d dfbe
00000020: f356 653f db67 5bbf df95 babe d6da 063f
00000030: 5426 3b3e f741 66bf 7cdf 8d3e 01ac 583e
00000040: fa49 133e 2b3d 0abe
0.8340937 0.41889504 -0.75261897 -0.3650719 -0.747816 -0.42369157 -0.4675537 -0.4361353
0.895858 -0.85705346 -0.36442468 0.5267767 0.1827634 -0.89944404 0.27709568 0.21159364
0.14383689 -0.13499896

gen.1.bias f4 [6]
00000000: d603 0d3f 2ca1 473e 4ad6 6bbf 291b 59be
00000010: 4a65 903e 59a4 3b3f
0.5508398 0.19495076 -0.92123854 -0.21201767 0.28202277 0.7329765

gen.3.weight f4 [12, 6]
00000000: a777 ccbe df2e c3bc ed3d c83e 5dca ce3e
00000010: fb50 303e 8f6f 44be ea6c 403f 5818 81be
00000020: 7fe6 42bf db02 67bf e254 de3d 26f8 343f
00000030: b39a 43bf c2ce e53c f30b 363f fa17 903e
00000040: beb4 13bd cdda 6fbe 88fc 303e 895d 29bf
00000050: 05ff f1be a249 cdbe 9e60 9fbc 6dad cfbd
00000060: 1ed5 073f 3078 233d 9867 4bbf b720 87bc
00000070: 20a0 5a3e 278d 2f3f a12d 4fbf d7eb 85bd
00000080: bd6b 123f 427e fb3e 3e79 aabd 23ca 25bf
00000090: a7be 523e f4ed 783e 5b9f 2bbf 8278 30bf
000000a0: aa53 413e 1ca8 2e3f 77b9 35bf 4769 d73d
000000b0: 42c8 973f 1b0c a53e ce9f 363d a5d9 c3be
000000c0: 8477 2abf dea8 2fbe 84ed 7e3e 3501 5c3f
000000d0: bd96 30bf ebd0 d7be 63b7 ac3e 46d0 1abe
000000e0: d2b7 77bf 1071 c9be 4935 043d b383 843e
000000f0: 00dc 1cbf 2ef8 48be c019 843f d326 043f
00000100: f5bc e93c ae48 18bf 3df4 503f 5fdd 4c3d
00000110: 209c cabe 1679 3abf 66e5 0d3f 1c58 153f
-0.39935037 -0.02382606 0.39109746 0.40388766 0.17218392 -0.19183181 0.7516619 -0.25213885
-0.7613296 -0.9023873 0.10856034 0.70691144 -0.7640793 0.028052691 0.71111983 0.28143293
-0.03606104 -0.2342331 0.17283833 -0.6615835 -0.47264877 -0.4009524 -0.01945525 -0.101405
0.53059566 0.03990954 -0.79454947 -0.016495092 0.21350145 0.68574756 -0.80929 -0.065391235
0.57195646 0.49119765 -0.08323906 -0.6476156 0.2058054 0.24309522 -0.6704003 -0.6893388
0.18879572 0.68225265 -0.7098612 0.10518127 1.1857989 0.32235798 0.044585995 -0.38251987
-0.66588616 -0.17154261 0.24895293 0.8593934 -0.6898001 -0.4215158 0.33733663 -0.15118513
-0.9676486 -0.39344072 0.03227738 0.2588173 -0.61273193 -0.19625923 1.0320358 0.5162174
0.028532485 -0.594859 0.8162268 0.050015803 -0.3957224 -0.7284101 0.5542816 0.5833757

gen.3.bias f4 [12]
00000000: 896c 81be d5b6 a63d 2df0 e5be 36c9 543d
00000010: 66cb fc3e 7727 b4be 7e41 7a3e 583d b6bd
00000020: 102c d5be 9973 2f3f 9299 8d3b 9c2d 153f
-0.25278118 0.08140341 -0.44909802 0.051949702 0.4937393 -0.3518636 0.24439046 -0.08898419
-0.4163518 0.68535763 0.0043212855 0.5827272

gen.5.weight f4 [6, 12]
00000000: 2fcd fabd 38e4 303e b321 bbbe 5d1f 883e
00000010: 73e9 fe3e 6c25 13be 0459 8d3e 2ffd 92be
00000020: 2216 00bf 2520 a33e 6d5d 07bf 1b2b 163f
00000030: a66a 5c3e af4d 153e 1b43 dfbe 39b2 0b3e
00000040: c9ed f53e d57a e9be 53d6 c33e 86ee 8fbe
00000050: bf0a f0be 034c 023f d47a d8be df35 f53e
00000060: 5450 dc3d 525d 653e d9b8 68be f71a 2d3e
00000070: d1e8 1d3f 6954 c5be 2d62 3e3f 60b9 08bc
00000080: 2143 d0be 5ace 6c3e ae2b 5cbe 657d 2f3f
00000090: b5ad d7be 68eb 273f 19e5 02bf bc30 c23e
000000a0: a5d4 31bd 2f9c ecbe 2fad c6bd f8ba 55bf
000000b0: fb01 603e ddf3 f33e 6733 22bf 5dc4 c2bc
000000c0: ccc4 383e 2930 723e 77f5 39bf ea3d a3be
000000d0: 4da1 db3e 6a13 1cbf 959a 0b3f 8dc2 4ebe
000000e0: 1324 c6be 2754 d43e 4041 ddbe c0da 283f
000000f0: 58d5 87be b97f 293e 5d60 b73e 642f e4bd
00000100: 8f11 46bf 8574 1f3f 77a6 21bf 7a79 91be
00000110: 9159 be3e c763 44bf 65ef d23d 9774 46bf
-0.12246167 0.17274559 -0.36549148 0.26586428 0.49787483 -0.14369744 0.27606976 -0.2870879
-0.5003377 0.31860462 -0.5287693 0.58659524 0.21525058 0.14580415 -0.43605885 0.13642205
0.48032978 -0.45601526 0.38249454 -0.28111666 -0.468832 0.50897235 -0.4228121 0.47892663
0.10757509 0.2239888 -0.22726764 0.16904818 0.61683375 -0.38540962 0.74368554 -0.008344978
-0.40676215 0.23125592 -0.21501037 0.6855071 -0.42124715 0.65593576 -0.51130825 0.37927806
-0.043415684 -0.4621291 -0.09701001 -0.83488417 0.21875755 0.4764699 -0.63359684 -0.023775274
0.18043822 0.23651184 -0.72640175 -0.31883174 0.428965 -0.60967124 0.5453275 -0.20191403
-0.38699397 0.41470453 -0.43213844 0.65958786 -0.26529956 0.16552629 0.35815707 -0.111418515
-0.7737054 0.6228717 -0.6314463 -0.28412992 0.3717771 -0.7671475 0.10299567 -0.7752165

gen.5.bias f4 [6]
00000000: cb9d a33e 8384 943e 9dc3 b73e cf0a e63e
00000010: 73ef f73d 45f9 a5be
0.31956324 0.29007348 0.3589143 0.4493012 0.12106218 -0.3241674

gen.7.weight f4 [2, 6]
00000000: d7a1 d93d b28f 56bd cdbc fe3e 9981 0c3f
00000010: a8cd 8a3d bc0d 27bf dd3e cfbf 3441 d6bf
00000020: 97cd 69bf daa9 a0bf 0e31 acbf c90b 793f
0.106265716 -0.052383132 0.4975342 0.5488525 0.06777507 -0.6525533 -1.6191059 -1.6738648
-0.9132933 -1.2551835 -1.345247 0.9728361

gen.7.bias f4 [2]
00000000: fbea 863e f1ff 80bf
0.2635115 -1.0078107
