gan2field/IP_flags, IP_DF/versions2/gen_7/1_gen_model.pt (torch, 3959 bytes, 10 tensors)

gen.0.weight f4 [3, 4]
0	0xbe1d51fa	-0.15363303
1	0x3cf5e004	0.030014046
2	0xbdf3f4b6	-0.11911909
3	0x3e71a215	0.23596986
4	0xbddd527e	-0.1080675
5	0xbe384c93	-0.17997961
6	0x3abb3dfe	0.0014285443
7	0x3e22c1d8	0.15894258
8	0x3da61578	0.081095636
9	0x3da0d8a6	0.078538224
10	0x3e01918b	0.12653176
11	0xbe80afe1	-0.25134185

gen.0.bias f4 [3]
0	0x3f218476	0.63092744
1	0xbe90bc3e	-0.28268617
2	0x3e0cb7c2	0.13741973

gen.1.weight f4 [6, 3]
0	0x3ec799fd	0.3898467
1	0xbd5d75d1	-0.054067437
2	0x3f255332	0.6458007
3	0x3efefe65	0.49803463
4	0x3ee9544c	0.45572126
5	0x3ec41633	0.38298187
6	0x3f1b7986	0.60732305
7	0x3ee58b1f	0.44832703
8	0x3f2d19a0	0.67617226
9	0xbe12f212	-0.14350155
10	0x3f23ef09	0.64036614
11	0xbf0da2a0	-0.5532627
12	0x3e73388b	0.23752038
13	0x3d826be0	0.06368232
14	0xbecf3dea	-0.40476924
15	0x3ea2df85	0.31811157
16	0xbecce712	-0.40020043
17	0x3e703982	0.23459437

gen.1.bias f4 [6]
0	0x3e6435f4	0.22286206
1	0x3e146e8e	0.14495298
2	0x3f30ab42	0.6901132
3	0xbed3dc8f	-0.4137921
4	0x3e4d4e42	0.20049384
5	0xbee3e668	-0.44511724

gen.3.weight f4 [12, 6]
0	0xbe5dca10	-0.21659112
1	0xbea466dd	-0.32109728
2	0x3e6b8045	0.2299815
3	0x3deb99e2	0.1150396
4	0x3c371c3d	0.011176166
5	0x3e835115	0.25647798
6	0x3ea5abaf	0.32357547
7	0x3eab8de1	0.33506683
8	0xbcd76973	-0.0262954
9	0xbddb7680	-0.107159615
10	0x3c3461ce	0.011009647
11	0x3e7cfa13	0.2470477
12	0xbee5154e	-0.44742817
13	0xbe498b1c	-0.19681972
14	0x3ce7a144	0.02827514
15	0xbd95db81	-0.07317258
16	0xbd936773	-0.07197466
17	0xbd031aac	-0.03200786
18	0xbe85e194	-0.26148665
19	0xbe3d5607	-0.18489848
20	0xbf07f972	-0.53115
21	0x3e8df7a1	0.27727988
22	0xbe31df0b	-0.1737024
23	0xbd963cd8	-0.07335824
24	0x3cd9804e	0.026550438
25	0x3d9aa69e	0.07551311
26	0x3ee0d483	0.43912134
27	0x3e3dbf26	0.18529949
28	0x3e45c9b8	0.19315231
29	0xbeeb0d67	-0.45908663
30	0x3f1d4e17	0.6144728
31	0x3e261866	0.16220245
32	0x3f1dcd44	0.61641335
33	0xbca6c74a	-0.0203587
34	0x3ee1b7a7	0.44085428
35	0x3dde60d9	0.10858316
36	0xbcbd88e1	-0.023136558
37	0x3c888284	0.016663797
38	0xbe2cd441	-0.16877843
39	0x3eaa4ef4	0.3326336
40	0x3e86ed9a	0.2635315
41	0xbe6826b6	-0.22671017
42	0x3d6253cb	0.055255692
43	0xbf0f7efd	-0.56053144
44	0xbea47f75	-0.32128492
45	0x3ebb3ab5	0.36568227
46	0x3e1a748f	0.15083526
47	0xbe3b61af	-0.18298982
48	0xbd84c7c3	-0.06483414
49	0x3ebc5887	0.3678629
50	0x3ed11287	0.40834448
51	0xbef6a316	-0.481713
52	0xbca86851	-0.020557554
53	0x3e90169f	0.2814226
54	0xbdff9362	-0.12479283
55	0xbe754aa3	-0.23954253
56	0xbe1a8407	-0.15089427
57	0x3ee9b952	0.456492
58	0xbe480088	-0.19531453
59	0x3efdbd9b	0.4955872
60	0x3e2a5200	0.16632843
61	0x3ee88004	0.45410168
62	0xbd47593d	-0.04866909
63	0xbf049728	-0.51793146
64	0x3ec22a1f	0.3792276
65	0x3e785efc	0.24254984
66	0x3e1d9679	0.15389432
67	0x3eedea04	0.46467602
68	0x3f037504	0.51350427
69	0xbe3b7ff7	-0.18310533
70	0xbe41d272	-0.18927935
71	0xbdb1f6b6	-0.086896345

gen.3.bias f4 [12]
0	0x3d35ace5	0.04435434
1	0x3d14e7c2	0.036353834
2	0xbeeb266b	-0.45927748
3	0xbe220eff	-0.15826033
4	0x3eb8d421	0.36099342
5	0x3e8e3b42	0.27779585
6	0xbd254517	-0.040349092
7	0xbea13fc5	-0.31493965
8	0xbe0a89b3	-0.1352909
9	0xbe158dae	-0.14604828
10	0x3eb10e85	0.3458139
11	0x3d81ff10	0.063474774

gen.5.weight f4 [6, 12]
0	0xbda3e024	-0.08001736
1	0xba316cc5	-0.0006768222
2	0x3eb962a5	0.36208072
3	0x3ea8a08e	0.32934994
4	0xbea1426a	-0.31495982
5	0xbe2ea206	-0.17053995
6	0x3d03682a	0.03208176
7	0x3eeea25b	0.46608242
8	0xbe5b69e2	-0.2142711
9	0x3ea5dcf0	0.32395124
10	0xbece9e86	-0.4035532
11	0xbf188d75	-0.59590846
12	0xbe23e8fb	-0.16006844
13	0x3d778d3d	0.06043743
14	0x3db941fd	0.090457894
15	0xbea374a6	-0.31924933
16	0x3ddcdd27	0.10784369
17	0x3e9a36eb	0.30120024
18	0xbc0bf526	-0.008542335
19	0xbf20b819	-0.6278091
20	0x3e024d02	0.12724689
21	0xbdd440d2	-0.10363926
22	0x3ea763be	0.32693285
23	0x3e142e98	0.14470899
24	0xbd0a5acb	-0.033777993
25	0xbe484455	-0.19557317
26	0x3d9abfff	0.075561516
27	0xbeb45360	-0.3521986
28	0x3e36bcb2	0.17845419
29	0x3eb1f842	0.34759718
30	0xbd9eba75	-0.077504076
31	0xbead8494	-0.33890212
32	0xbe25fd8f	-0.16210006
33	0xbdcb3961	-0.099230535
34	0x3eb5312f	0.35389087
35	0xbeb35260	-0.35023785
36	0xbdc5cc22	-0.09658076
37	0x3da7d221	0.08194376
38	0x3eb5a2fc	0.3547591
39	0x3e6b9c46	0.23008832
40	0xbe81b42b	-0.2533277
41	0xbe930938	-0.2871797
42	0x3dea6c01	0.11446381
43	0x3e9bacf7	0.304054
44	0x3e0aaf86	0.1354352
45	0x3e0a1f3a	0.13488474
46	0xbdc1199b	-0.09428712
47	0xbdbbca25	-0.091694154
48	0xbe4d5dce	-0.20055315
49	0x3dd7f957	0.10545605
50	0xbe5d50b3	-0.21612816
51	0xbe8517f2	-0.2599483
52	0x3e226209	0.1585771
53	0x3e818765	0.2529861
54	0x3e8b67c2	0.27227598
55	0xbe5c18de	-0.21493861
56	0x3e1803eb	0.14845245
57	0xbe23e30e	-0.16004583
58	0x3e80e2bc	0.25172985
59	0xbc8ae7ef	-0.016956298
60	0x3e4e4e24	0.20146996
61	0x3e7f9172	0.24957827
62	0xbe9af754	-0.3026682
63	0xbe639095	-0.22223122
64	0xbd87e507	-0.066354804
65	0xbdde1474	-0.10843745
66	0xbd9891f7	-0.074497156
67	0xbe7da785	-0.24770935
68	0x3dec63e7	0.11542492
69	0xbe8ceb6a	-0.27523357
70	0x3e8c441c	0.27395713
71	0xbea3362c	-0.31877267

gen.5.bias f4 [6]
0	0xbebcb2bb	-0.3685511
1	0xbd9e53cf	-0.07730829
2	0x3ea98599	0.3310974
3	0x3cee6ac9	0.029103654
4	0x3e44a346	0.19202909
5	0xbd80f744	-0.06297162

gen.7.weight f4 [2, 6]
0	0x3f4800f8	0.7812648
1	0xbeb83652	-0.35978943
2	0xbcdc7d60	-0.026915252
3	0x3efb1fa5	0.4904758
4	0xbdca6250	-0.09882033
5	0xbe246948	-0.16055787
6	0x3f3b21e1	0.7309857
7	0xbf00f55b	-0.5037438
8	0xbeafd10d	-0.3433918
9	0x3f196354	0.5991719
10	0xbec437b4	-0.38323748
11	0xbddfb1fa	-0.10922618

gen.7.bias f4 [2]
0	0x3eda0e34	0.4258896
1	0xbbd53968	-0.0065070875
