gan2field/IP_flags, IP_DF/versions2/gen_2/0_gen_model.pt (torch, 3959 bytes, 10 tensors)

gen.0.weight f4 [3, 4]
0.04546994 0.14167623 0.20257805 -0.14416608 -0.03194182 -0.055235624 -0.13517168 0.00062181504
-0.093349226 0.33881235 0.15163377 0.23525932
00000000: b03e 3a3d 9313 113e 9f70 4f3e 46a0 13be
00000010: 6dd5 02bd c03e 62bd 726a 0abe 4d01 233a
00000020: e12d bfbd d078 ad3e e245 1b3e d2e7 703e

gen.0.bias f4 [3]
0.4929142 -0.58938336 -0.7204858
00000000: 405f fc3e d4e1 16bf c271 38bf

gen.1.weight f4 [6, 3]
-0.10889227 0.15640275 0.726141 -0.24041355 -0.035680983 -0.1611981 0.37062353 0.099466085
-0.354185 0.51126355 -0.9315256 -0.93575096 -0.018217996 0.73364234 -0.027619189 0.41085172
-1.0200287 0.11012918
00000000: e902 dfbd 0b28 203e 60e4 393f f82e 76be
00000010: 3926 12bd 1d11 25be 5ec2 bd3e e0b4 cb3d
00000020: bc57 b5be 2be2 023f 7678 6ebf 608d 6fbf
00000030: e83d 95bc fccf 3b3f a341 e2bc 285b d23e
00000040: 4d90 82bf 688b e13d

gen.1.bias f4 [6]
-0.37678704 0.4112215 -0.355507 0.37469387 -0.64895004 1.0979941
00000000: 3bea c0be a08b d23e 0305 b6be e0d7 bf3e
00000010: 9721 26bf 128b 8c3f

gen.3.weight f4 [12, 6]
-0.34629598 0.07257976 -0.34469917 -0.3098301 -0.22225414 -0.43540367 -0.17295837 0.06406407
0.18438783 0.57805604 -0.22581081 0.23678502 -0.60762954 -0.19312815 0.14484033 0.72704536
-0.52800107 0.030410996 -0.7602365 0.27208522 -0.34235847 0.27158087 -0.3201458 0.68332046
-0.20254071 0.24433759 -0.67328435 -0.08784536 -0.44097796 0.20090844 -0.8968022 -0.0048003653
-0.4706604 0.997944 -0.53934157 0.7317643 -0.65600663 0.35346872 -0.4261398 0.17090428
-0.07068648 0.15976718 0.4452245 -0.7523797 0.12059942 -0.29382345 0.29343513 -0.514922
0.5267732 0.11034179 0.17338765 -0.3766665 0.15040705 -0.047075026 -0.2920813 0.4073609
-0.17693241 0.04538383 -0.7580658 0.70159614 0.44400927 0.27139005 -0.26969275 -0.046534494
-0.020299124 -0.15057994 -0.013919193 -0.6660833 0.111455575 -0.45056483 0.34237102 -0.8743006
00000000: b54d b1be b2a4 943d 697c b0be 0da2 9ebe
00000010: 9796 63be 3bed debe 001c 31be 0634 833d
00000020: 2ad0 3c3e 7bfb 133f f33a 67be c677 723e
00000030: 9c8d 1bbf 63c3 45be 0651 143e a51f 3a3f
00000040: 142b 07bf 7b20 f93c dc9e 42bf c14e 8b3e
00000050: 9c49 afbe a60c 8b3e 26ea a3be 17ee 2e3f
00000060: d566 4fbe a233 7a3e 5d5c 2cbf 45e8 b3bd
00000070: ddc7 e1be f1ba 4d3e d494 65bf 624c 9dbb
00000080: 66fa f0be 4279 7f3f 4a12 0abf e854 3b3f
00000090: 0df0 27bf daf9 b43e ff2e dabe 8801 2f3e
000000a0: 13c4 90bd 029a 233e 77f4 e33e f59b 40bf
000000b0: d4fc f63d 0770 96be 213d 963e eed1 03bf
000000c0: 9cda 063f e0fa e13d 888c 313e 6eda c0be
000000d0: 4e04 1a3e bed1 40bd ae8b 95be 9c91 d03e
000000e0: c52d 35be 65e4 393d 9a10 42bf ce9b 333f
000000f0: 2f55 e33e a3f3 8a3e 2b15 8abe f49a 3ebd
00000100: 594a a6bc a131 1abe 540d 64bc 6f84 2abf
00000110: d242 e43d 6fb0 e6be 414b af3e 2ad2 5fbf

gen.3.bias f4 [12]
0.2691668 0.289834 0.066803575 0.127019 0.27054018 0.34734613 0.84629685 -0.30212638
-0.04533677 0.33191565 -0.22813547 -0.3831134
00000000: 3bd0 893e 1f65 943e 50d0 883d 4511 023e
00000010: 3e84 8a3e 5ad7 b13e e9a6 583f 4fb0 9abe
00000020: 0db3 39bd d9f0 a93e 589c 69be 7127 c4be

gen.5.weight f4 [6, 12]
-0.012390482 0.47325775 0.4198668 0.90351033 0.27901143 0.22464289 0.3269199 -1.0878476
-0.006288619 0.5252888 -0.1741036 -0.98548406 0.27965584 0.2061557 0.40173677 -0.22644642
0.47221497 0.35573128 0.1543857 0.071568415 -0.03947783 -0.22337003 -0.17542836 -0.085225284
0.14559948 -0.4463587 -0.52405435 0.2611105 -0.13900918 -0.5137047 -0.19627865 -0.34821513
0.2522601 0.04473273 0.39127445 -0.25360826 -0.093279324 -0.1986705 0.05708474 0.27156645
0.2159652 -0.32595158 -0.113777086 -0.39720443 -0.16326351 0.6980656 0.20370112 -0.3579973
0.14177895 0.12388625 0.059234343 -0.049644217 0.5672745 0.34143528 0.4975649 0.20227528
-0.36790144 0.023267297 -0.22973688 0.29964185 0.15137644 -0.07218774 0.096865274 -0.32672012
-0.24062462 0.08506053 0.041441496 0.27240616 0.27188447 -0.43370047 0.30050534 0.0157286
00000000: 7301 4bbc d74e f23e c8f8 d63e 744c 673f
00000010: 96da 8e3e c908 663e 0c62 a73e 973e 8bbf
00000020: c210 cebb 5479 063f 3748 32be af48 7cbf
00000030: 0d2f 8f3e 7b1a 533e 71b0 cd3e 92e1 67be
00000040: 29c6 f13e 6922 b63e 4917 1e3e 7692 923d
00000050: 81b3 21bd 1dbb 64be 7ea3 33be 988a aebd
00000060: 0818 153e 2189 e4be 6d28 06bf 47b0 853e
00000070: 6c58 0ebe 2782 03bf 45fd 48be 4149 b2be
00000080: 3c28 813e ab39 373d 2055 c83e f1d8 81be
00000090: 3b09 bfbd 4870 4bbe b0d1 693d c20a 8b3e
000000a0: fb25 5d3e 20e3 a6be f603 e9bd 615e cbbe
000000b0: 8d2e 27be 6db4 323f 0797 503e 6c4b b7be
000000c0: 802e 113e 13b8 fd3d b69f 723d bc57 4bbd
000000d0: e738 113f 9bd0 ae3e d4c0 fe3e 4021 4f3e
000000e0: 945d bcbe 0f9b be3c 2540 6bbe a86a 993e
000000f0: 6d02 1b3e 2ad7 93bd 4d61 c63d dc47 a7be
00000100: 4d66 76be 3734 ae3d 8fbe 293d d278 8b3e
00000110: 7134 8b3e fd0d debe d6db 993e 44d9 803c

gen.5.bias f4 [6]
-0.002219837 -0.10291537 -0.6880802 -0.44714442 0.042190574 -0.36332744
00000000: af7a 11bb 4bc5 d2bd 0626 30bf 1df0 e4be
00000010: 06d0 2c3d 0e06 babe

gen.7.weight f4 [2, 6]
0.2820917 -0.12774906 0.43360907 0.1708297 0.23378798 -0.066047475 -0.46585613 -0.28830683
-0.43380883 -0.41665614 -0.10941286 -0.25124338
00000000: 536e 903e a6d0 02be 0202 de3e fbed 2e3e
00000010: 1e66 6f3e e643 87bd b284 eebe f49c 93be
00000020: 311c debe f453 d5be d913 e0bd f9a2 80be

gen.7.bias f4 [2]
-0.07038769 -0.1283758
00000000: 6c27 90bd f274 03be
