gan2field/IP_flags, IP_DF/versions2/gen_2/1_gen_model.pt (torch, 3959 bytes, 10 tensors)

gen.0.weight f4 [3, 4]
-0.12971698 -0.010755961 -0.05647685 0.032705452 0.06730853 0.32375044 -0.05645748 0.06624371
-0.069498874 -0.32626364 0.19991094 -0.18278062
00000000: 87d4 04be c539 30bc 4554 67bd 27f6 053d
00000010: 0ed9 893d 9ec2 a53e f53f 67bd c8aa 873d
00000020: 6d55 8ebd 070c a7be 74b5 4c3e d82a 3bbe

gen.0.bias f4 [3]
0.091964655 -0.111013725 0.15251745
00000000: f757 bc3d 2a5b e3bd 892d 1c3e

gen.1.weight f4 [6, 3]
0.4820239 -0.20842713 -0.24708487 -0.1399071 -0.03753575 -0.46392906 0.022095725 0.20056473
-0.021814927 -0.067263015 -0.11355465 -0.078748554 -0.26643515 0.2583517 -0.3587495 -0.24719451
-0.3013752 0.18255152
00000000: d6cb f63e ec6d 55be d103 7dbe cf43 0fbe
00000010: 16bf 19bd 1c88 edbe 1802 b53c d760 4d3e
00000020: 38b5 b2bc 31c1 89bd 578f e8bd ec46 a1bd
00000030: 306a 88be ad46 843e 04ae b7be 8f20 7dbe
00000040: da4d 9abe c9ee 3a3e

gen.1.bias f4 [6]
-0.086676136 0.5520659 0.33348504 0.24261017 0.19686098 0.3806805
00000000: 4283 b1bd 3154 0d3f 8dbe aa3e cd6e 783e
00000010: ed95 493e 8ee8 c23e

gen.3.weight f4 [12, 6]
0.025126828 0.18585019 -0.29622737 0.1594672 -0.13853368 0.30284786 0.2094129 -0.08947137
-0.00087125116 0.28760955 0.18056916 0.14087524 -0.12389112 -0.033058304 0.21725293 0.14477094
0.20607793 0.21587592 -0.18961298 -0.064582475 -0.50035024 -0.07730578 -0.020609047 -0.157625
-0.2887997 0.3093394 -0.28665566 0.3270233 -0.08389296 0.10711024 -0.3344619 -0.26885113
0.57898754 -0.17757027 -0.07722069 -0.1668551 -0.065056436 -0.064616755 0.05861154 -0.34979287
-0.11796209 0.35178486 -0.0040941765 0.21105966 -0.017628822 0.26226085 0.46158028 -0.1530986
0.11331001 0.14843397 -0.17351194 -0.3947892 -0.27088037 0.024143638 0.071724005 -0.11294993
0.041953694 0.05509581 -0.107697956 -0.2771843 -0.12927128 -0.4269811 0.0023670278 -0.0034121834
-0.008906974 -0.39703956 0.21049449 0.4654801 0.3355788 0.096809514 -0.023887767 0.31400472
00000000: c7d6 cd3c 834f 3e3e 1dab 97be 5f4b 233e
00000010: c6db 0dbe e00e 9b3e 5670 563e c43c b7bd
00000020: ad64 64ba 8f41 933e 1fe7 383e 9941 103e
00000030: a1ba fdbd 2568 07bd 8d77 5e3e d53e 143e
00000040: 1806 533e 940e 5d3e e829 42be d143 84bd
00000050: f416 00bf 7e52 9ebd 4ed4 a8bc 7368 21be
00000060: 8edd 93be bc61 9e3e 88c4 92be 996f a73e
00000070: 12d0 abbd 9d5c db3d 973e abbe dba6 89be
00000080: 8738 143f fbd4 35be e225 9ebd 10dc 2abe
00000090: 4f3c 85bd ca55 84bd a712 703d 0d18 b3be
000000a0: 1c96 f1bd 251d b43e 7128 86bb 0620 583e
000000b0: 526a 90bc 0e47 863e 4054 ec3e e1c5 1cbe
000000c0: 140f e83d 13ff 173e 1dad 31be cf21 cabe
000000d0: d5b0 8abe e1c8 c53c 09e4 923d 4b52 e7bd
000000e0: a3d7 2b3d 25ac 613d bf90 dcbd 1aeb 8dbe
000000f0: b15f 04be 449d dabe 2320 1b3b f09e 5fbb
00000100: 8fee 11bc c548 cbbe de8b 573e 6853 ee3e
00000110: fcd0 ab3e 1144 c63d 47b0 c3bc 3ac5 a03e

gen.3.bias f4 [12]
-0.14188994 -0.24177025 -0.226711 -0.11045563 0.07060164 -0.12063839 0.332672 -0.1277614
0.24917392 -0.26417762 -0.19803286 -0.17903054
00000000: 994b 11be 9f92 77be ee26 68be 9036 e2bd
00000010: 9897 903d 4311 f7bd fc53 aa3e e2d3 02be
00000020: 7327 7f3e 4a42 87be 20c9 4abe c853 37be

gen.5.weight f4 [6, 12]
0.20067112 0.085983165 -0.04629977 -0.45823726 -0.13246116 0.023975987 -0.24496998 0.09236259
-0.24543793 -0.36528078 -0.27096605 0.10561803 -0.38020828 -0.23900855 -0.3174239 0.14047495
0.107093446 0.002840161 0.042228144 -0.29236436 -0.13244389 -0.095249094 -0.14651644 -0.094085075
-0.16523688 -0.15212087 -0.16888934 -0.20773138 -0.22791444 0.0940299 0.30091837 0.107093945
-0.15879121 -0.13983978 -0.07691482 -0.03611011 -0.24160329 -0.062106464 -0.2002976 0.110494025
0.118876465 0.076271415 -0.1759848 0.14917488 -0.09703381 -0.16660057 -0.05410446 -0.18856888
-0.33837396 -0.09682589 0.10219794 -0.078439385 0.20741275 -0.42664424 0.12293881 -0.20643325
3.497739e-05 -0.13809772 -0.033041097 0.15308158 0.24734704 -0.15367638 -0.064113736 -0.09002479
-0.060229704 0.14141475 -0.0979535 0.003133833 -0.11312948 0.0469221 0.27512643 -0.20199166
00000000: bb7c 4d3e f117 b03d d4a4 3dbd 139e eabe
00000010: e6a3 07be 4a69 c43c 69d9 7abe 9928 bd3d
00000020: 1554 7bbe 1506 bbbe 10bc 8abe 444e d83d
00000030: a9aa c2be a8be 74be 6385 a2be aad8 0f3e
00000040: cf53 db3d ff21 3a3b 6bf7 2c3d c8b0 95be
00000050: 5f9f 07be f511 c3bd 6808 16be adaf c0bd
00000060: db33 29be 93c5 1bbe 54f1 2cbe 89b7 54be
00000070: 6762 69be c092 c03d f911 9a3e 1254 db3d
00000080: 2a9a 22be 2932 0fbe 8485 9dbd 32e8 13bd
00000090: da66 77be 5963 7ebd d01a 4dbe b14a e23d
000000a0: 8175 f33d 3034 9c3d 5c35 34be 4dc1 183e
000000b0: aab9 c6bd 5799 2abe a39c 5dbd 3318 41be
000000c0: 5a3f adbe a74c c6bd 274d d13d d4a4 a0bd
000000d0: 0264 543e 1d71 dabe 58c7 fb3d 3d63 53be
000000e0: b0b4 1238 7d69 0dbe 1a56 07bd 6bc1 1c3e
000000f0: 8b48 7d3e 575d 1dbe 104e 83bd eb5e b8bd
00000100: 6cb3 76bd 07cf 103e d89b c8bd fe60 4d3b
00000110: 6eb0 e7bd 6331 403d 5fdd 8c3e e7d6 4ebe

gen.5.bias f4 [6]
0.10604943 0.19877046 0.3435557 0.14629112 0.31953898 -0.1397109
00000000: 7230 d93d 7c8a 4b3e 88e6 af3e 57cd 153e
00000010: 9d9a a33e 6010 0fbe

gen.7.weight f4 [2, 6]
0.008462356 -0.316133 0.31976348 -0.113611154 -0.3697962 -0.17910445 0.12702397 -0.19479778
-0.4373817 -0.24403618 -0.26010537 0.015302624
00000000: b2a5 0a3c 2fdc a1be 0ab8 a33e f7ac e8bd
00000010: ed55 bdbe 2867 37be 9212 023e 1279 47be
00000020: 7ff0 dfbe 9fe4 79be 882c 85be dbb7 7a3c

gen.7.bias f4 [2]
0.056032643 0.19700663
00000000: 7c82 653d 1bbc 493e
