gan2field/IP_flags, IP_DF/versions2/gen_3/0_gen_model.pt (torch, 3959 bytes, 10 tensors)

gen.0.weight f4 [3, 4]
000000 9a c5 e0 3e 2c 68 42 be 19 e9 54 be 40 01 a4 be
       0.43900758 -0.18985051 -0.20792045 -0.32032204
000010 a4 bf 78 be f0 76 9f 3e 94 4d 2a 3e ef b9 a7 3e
       -0.24291855 0.3114543 0.16631156 0.32759044
000020 8a 2a 14 bd ee ad 4e 3e 1c 14 ff 3d 24 8a c2 3d
       -0.03617338 0.20183536 0.124550074 0.094990045

gen.0.bias f4 [3]
000000 8f 3c 06 bf 9d 73 2a bf 1f 95 0f be
       -0.52436155 -0.6658266 -0.14021729

gen.1.weight f4 [6, 3]
000000 d7 ac 21 3f 11 c1 4d 3f 99 3c 6a 3e fe 23 a3 be
       0.6315436 0.8037272 0.22874679 -0.31863397
000010 05 49 97 3e 65 5c c1 bd fb 16 ba bd 0c 34 f7 be
       0.29547897 -0.09441451 -0.090864144 -0.48281896
000020 f6 a8 30 be 85 8d 7c 3d 79 8d 6b 3e ae 1a 92 bd
       -0.17251953 0.0616584 0.23003186 -0.07133995
000030 e9 1f 29 3f a6 30 39 3f d5 df 08 be 88 75 51 be
       0.66064316 0.72339857 -0.13366635 -0.20454991
000040 83 86 8b be 07 d3 13 be
       -0.27251062 -0.1443597

gen.1.bias f4 [6]
000000 bc 11 f6 be f1 8e e8 3e fa 08 2b be fc 65 c2 3e
       -0.48060405 0.45421556 -0.16702643 0.37968433
000010 e5 86 55 bf e5 9f 34 3e
       -0.8340896 0.1763912

gen.3.weight f4 [12, 6]
000000 e3 0c 8e be 4e 7c 39 3f 75 f0 01 bf b6 aa a3 3e
       -0.27744207 0.724553 -0.50757533 0.3196618
000010 3e 53 1f bf ab ef 2b 3f 37 86 a6 3e 3e 9f cc bd
       -0.6223639 0.6716258 0.32524273 -0.099913105
000020 78 de a2 3e 4b 3a cc be f0 bf 19 3f 13 8d 15 bf
       0.31810355 -0.39888224 0.600585 -0.5841839
000030 5b 37 1a 3f 87 be 2f bf 3f ba 4d 3f d9 f3 3f bd
       0.60240716 -0.68650097 0.80362314 -0.04686341
000040 10 e4 5f 3f a9 5b 6d bf 54 f9 a5 be 4b 0a 19 3f
       0.8745737 -0.9271799 -0.32416785 0.5978133
000050 bf ab b4 bd eb 64 6e 3e f0 60 05 bf d8 2f fa 3e
       -0.088218205 0.23280685 -0.5210104 0.48864627
000060 a5 7f 1a 3f 28 f0 8c bc 09 85 87 3e 7e 56 bb be
       0.6035102 -0.01720436 0.26468685 -0.36589426
000070 e8 b1 25 3f e4 c8 32 bd 25 39 31 3f 3d 03 d6 be
       0.6472459 -0.043648615 0.6922782 -0.41799346
000080 6c 49 0e 3f 86 f2 0f bf 65 e9 80 3f c7 7e f0 be
       0.5558078 -0.56229436 1.0071226 -0.46971723
000090 1a 87 09 be 87 0f 18 3e 82 10 00 bf eb 6d c3 bb
       -0.13430443 0.14849673 -0.5002519 -0.005964031
0000a0 9e e1 1d be c7 bf 81 be 32 ba 18 3e 7f e0 00 3e
       -0.15418097 -0.25341627 0.14914778 0.12585638
0000b0 56 8b 8e 3e c8 a4 4a 3e a3 91 5b 3e 62 bd 08 be
       0.2784068 0.19789422 0.21442275 -0.13353494
0000c0 6f f3 fe 3e 49 97 c0 be 4a 73 a6 be ec 76 bc be
       0.497951 -0.3761542 -0.32509834 -0.3680948
0000d0 9e df 2f 3d 37 a5 74 bd ea 6d ca 3e a9 18 44 3e
       0.042937867 -0.059727874 0.39536983 0.19150032
0000e0 da d6 40 bd 93 ef 90 be b1 55 04 3f 6c a2 49 be
       -0.0470799 -0.2830778 0.51693255 -0.19690865
0000f0 eb 37 81 be 61 51 43 3f 2b 91 96 be 39 54 81 3c
       -0.25237975 0.7629605 -0.2940763 0.01578723
000100 10 2b fe be 02 85 0e 3f 29 44 3c bd bd 6a 6c 3e
       -0.4964223 0.55671704 -0.04596344 0.23087592
000110 bc e7 8d 3e 8f 56 51 3e 4b 06 c8 3e cc ab 91 be
       0.27715862 0.20443176 0.390673 -0.28451383

gen.3.bias f4 [12]
000000 7a bc 21 3f 4d ce dd bc 02 77 b6 be 45 c7 53 3f
       0.6317822 -0.027075911 -0.3563767 0.82725936
000010 65 f5 8d be 97 3d 96 be 5b 77 c0 bd 9e 6f e7 3e
       -0.27726284 -0.29343864 -0.09397765 0.45202345
000020 47 a4 8b 3e 17 e5 e6 3d b7 5f 59 3f 47 65 94 3c
       0.2727377 0.11274164 0.84911674 0.018114699

gen.5.weight f4 [6, 12]
000000 6f e4 1d bf d8 f7 7c be 24 f5 37 3f 51 25 02 bf
       -0.61676687 -0.2470392 0.7185843 -0.5083819
000010 31 6f 03 be 09 2c 6f 3e 13 56 d4 3e e8 e2 7a bd
       -0.12835385 0.23356642 0.4147192 -0.06125155
000020 bb 77 37 be 6b a4 bd be 14 1d 11 bf d9 e4 07 3d
       -0.17916767 -0.37039503 -0.56684995 0.03317723
000030 89 7a f7 3a 3c bf 08 bf 7b f0 82 be 32 0c a6 bd
       0.0018881123 -0.534168 -0.25574097 -0.08107795
000040 ec 07 3b bf 5d 80 d2 be e4 7f 05 be 0b e7 60 3e
       -0.7305896 -0.41113558 -0.13037068 0.21963136
000050 4a a3 f2 bc cc a3 24 3e e8 9f 74 bd 99 8e 0b 3d
       -0.029618878 0.16078109 -0.05972281 0.03407154
000060 95 48 d1 be 9d 1e 90 3e 4b 2d 05 3f 0e cc db bd
       -0.40875688 0.28148356 0.52022237 -0.1073228
000070 26 e4 9e 3e 17 88 0c 3f 23 85 d5 bc 29 be ac 3d
       0.31033438 0.54895157 -0.026064461 0.08434708
000080 e1 4f 10 3d f3 1a e8 3d 08 eb c6 be 5c d3 1c 3e
       0.03523243 0.11333265 -0.3885119 0.15315002
000090 94 7e 03 bd ea 7d 46 bf 55 a6 e1 be 40 c9 c6 bd
       -0.032103136 -0.7753588 -0.44072214 -0.09706354
0000a0 17 d6 1e bf 81 ad b4 be 5f 4c 07 be ae f4 ba bd
       -0.62045425 -0.35288623 -0.13212727 -0.091287
0000b0 1f bf 74 be f9 47 9a be 2d 19 7e 3c 04 98 90 3d
       -0.23901032 -0.30133036 0.015508932 0.07060245
0000c0 7f f1 ab be 2d b7 db bd c5 a6 06 3f 3c 22 11 bf
       -0.33582684 -0.107282974 0.5259822 -0.5669286
0000d0 55 6f 39 3c 54 fd f1 3e 8b 02 0a 3e 74 88 15 bf
       0.0113180475 0.47263587 0.13477533 -0.58411336
0000e0 e6 16 bc be a0 fa 52 be 8b bf d5 be 22 fd f3 be
       -0.3673622 -0.20603418 -0.41747698 -0.47654063
0000f0 e3 46 d7 3c 79 28 0c bf 25 90 be be 45 83 3c be
       0.026278919 -0.54749256 -0.3721935 -0.1840945
000100 e4 73 e1 be ce f2 41 bf 50 81 34 3e 51 7a f2 3d
       -0.4403373 -0.75761116 0.17627454 0.11839736
000110 08 c1 68 be 9b f9 26 be 72 a0 82 3e e4 e9 3f 3e
       -0.22729886 -0.16306154 0.25513035 0.18741566

gen.5.bias f4 [6]
000000 b1 fe 07 bf d4 4f aa 3e e8 9f 94 be d6 5c 6b 3d
       -0.53123003 0.3326403 -0.2902825 0.057461582
000010 8c db e2 bd 42 14 a3 3a
       -0.110770315 0.001244195

gen.7.weight f4 [2, 6]
000000 64 70 1d bd dc 34 bc 3e 20 b6 3c bf 3d 29 2f 3f
       -0.038437262 0.36759079 -0.737154 0.684223
000010 8f b7 28 bf d7 5f e5 3e f7 54 48 3f 76 50 82 3e
       -0.6590509 0.44799682 0.78254646 0.25452012
000020 fa 9a 83 bd 3b 4a 0c 3e 1b f1 23 3f 4b e3 82 3e
       -0.06426044 0.13700192 0.6403977 0.25564036

gen.7.bias f4 [2]
000000 53 b1 2b be c1 bd 31 bf
       -0.16766863 -0.69430166
