gan2field/IP_flags, IP_DF/versions2/gen_3/1_gen_model.pt (torch, 3959 bytes, 10 tensors)

gen.0.weight f4 [3, 4]
0.1268333 0.10671226 -0.11064271 0.058444977 0.042738866 0.044353083 -0.049237937 0.0042142733
-0.20910528 -0.16972968 0.17649768 -0.10127548
00000000: 97e0 013e f58b da3d a598 e2bd 0064 6f3d
00000010: f30e 2f3d 94ab 353d b8ad 49bd e317 8a3b
00000020: b21f 56be 9ecd 2dbe cfbb 343e 8569 cfbd

gen.0.bias f4 [3]
0.6548274 0.34160623 0.63819695
00000000: c5a2 273f 03e7 ae3e e060 233f

gen.1.weight f4 [6, 3]
-0.031329628 0.3611674 0.18536933 -0.6561938 0.19591826 -0.24040078 0.4707883 -0.33466753
0.041160222 -0.43115515 -0.32661268 -0.5548128 0.16102055 0.3164819 0.013631562 0.54760903
0.724171 0.31731036
00000000: 7f53 00bd efea b83e 75d1 3d3e 51fc 27bf
00000010: cc9e 483e 9f2b 76be 2a0b f13e 8b59 abbe
00000020: 9f97 283d 5ec0 dcbe c739 a7be 3608 0ebf
00000030: 92e2 243e ea09 a23e ea56 5f3c 1b30 0c3f
00000040: 4563 393f 8176 a23e

gen.1.bias f4 [6]
0.6687696 -0.42213392 0.47586197 -0.6478768 -0.60911834 0.40072414
00000000: 7c34 2b3f f021 d8be 2ea4 f33e 41db 25bf
00000010: 2eef 1bbf b72b cd3e

gen.3.weight f4 [12, 6]
-0.2208399 0.07711018 -0.31081137 -0.40198365 0.38047192 0.39465874 0.19329669 -0.4707505
0.36932763 -0.4670084 -0.31497797 0.457371 -0.32324257 0.5825007 -0.16616213 0.08245968
0.8385631 -0.3058631 -0.019065801 0.24161887 -0.38781926 -0.010489484 0.40730354 -0.5423062
-0.04835545 0.6211303 -0.298545 0.076269306 -0.23453455 -0.31726828 -0.52827257 -0.04150107
-0.30889383 0.28332642 0.5267781 -0.380561 -0.3483683 0.5776986 0.14448075 0.15097654
-0.22735386 0.13374655 -0.21712439 0.45233983 -0.49306664 0.14910454 0.06487666 -0.56970805
0.2314338 0.14657292 -0.3146024 0.15920742 0.116141275 -0.09536414 -0.7841261 0.18000686
0.10426034 0.5027463 0.5547215 -0.16195077 -0.32290888 0.35761628 0.1394336 0.2163858
0.029505525 -0.4300362 0.62376684 -0.5451932 -0.12810709 -0.35517994 -0.06933757 0.2800221
00000000: db23 62be f1eb 9d3d ab22 9fbe cdd0 cdbe
00000010: 37cd c23e b610 ca3e 91ef 453e 3606 f1be
00000020: 8318 bd3e ba1b efbe cb44 a1be 882c ea3e
00000030: 0d80 a5be c41e 153f 6826 2abe 9fe0 a83d
00000040: 12ac 563f 179a 9cbe e22f 9cbc f06a 773e
00000050: 3f90 c6be 16dc 2bbc 178a d03e 94d4 0abf
00000060: 5d10 46bd 6502 1f3f e4da 98be 1533 9c3d
00000070: d329 70be fd70 a2be df3c 07bf 07fd 29bd
00000080: 5527 9ebe 2910 913e eeda 063f e4d8 c2be
00000090: 545d b2be 0ee4 133f c3f2 133e 9899 1a3e
000000a0: 73cf 68be dbf4 083e db55 5ebe 1699 e73e
000000b0: 3b73 fcbe dcae 183e 0ede 843d 63d8 11bf
000000c0: fbfc 6c3e 3617 163e 9113 a1be 4507 233e
000000d0: 7adb ed3d 464e c3bd 7dbc 48bf b853 383e
000000e0: 7286 d53d fbb3 003f 3a02 0e3f 6cd6 25be
000000f0: 5054 a5be 7b19 b73e aec7 0e3e 3d94 5d3e
00000100: 92b5 f13c b42d dcbe 2faf 1f3f c891 0bbf
00000110: 812e 03be 25da b5be db00 8ebd 0f5f 8f3e

gen.3.bias f4 [12]
-0.22450124 -0.088502884 -0.6865004 -0.19170545 -0.587563 -0.47964793 -0.3177472 -0.3553079
0.07341484 -0.21760327 -0.4113303 0.31544766
00000000: a7e3 65be 0041 b5bd 7dbe 2fbf 6f4e 44be
00000010: 876a 16bf 6a94 f5be c3af a2be ebea b5be
00000020: 855a 963d 64d3 5ebe e399 d2be 5b82 a13e

gen.5.weight f4 [6, 12]
-0.20332667 0.27085334 -0.04972265 -0.06427414 -0.23045617 -0.42899168 -0.16671854 -0.30257213
0.02224816 -0.3628181 -0.5214793 0.47742987 -0.1356634 -0.4453622 0.18094194 0.33289832
0.40433386 0.15834579 0.018973816 0.40401343 0.40847182 1.2629962 0.27599928 -0.10928604
0.1449393 -0.39540276 0.23361261 0.5420112 -0.015322012 0.380974 0.45252657 0.27388862
-0.105593435 0.39812702 0.47820818 -0.4336116 0.0089401705 -0.34805864 0.23125072 0.12596276
0.47257668 0.09053653 0.40572757 -0.010175369 -0.01942516 1.127778 0.42686665 -0.55582994
0.10423338 0.35551798 -0.13134575 -0.55884284 -0.5491511 -0.36773103 -0.6366228 -0.58284223
-0.4312604 -0.9710396 -0.16227072 0.5307886 -0.15690881 -0.47510725 0.22380173 0.5159796
0.4753721 0.14008814 0.2968967 0.27541384 0.040528607 0.73436767 0.2559642 -0.20565173
00000000: de34 50be 4aad 8a3e faa9 4bbd 29a2 83bd
00000010: b4fc 6bbe cca4 dbbe 44b8 2abe bcea 9abe
00000020: c641 b63c 4bc3 b9be ab7f 05bf b071 f43e
00000030: 59eb 0abe 8406 e4be d848 393e a671 aa3e
00000040: d904 cf3e 6625 223e fa6e 9b3c d9da ce3e
00000050: 3823 d13e dca9 a13f c74f 8d3e 5cd1 dfbd
00000060: f86a 143e 3b72 cabe 2538 6f3e 3fc1 0a3f
00000070: 2d09 7bbc 060f c33e 90b1 e73e 213b 8c3e
00000080: 5f41 d8bd 4ed7 cb3e b4d7 f43e 5702 debe
00000090: cb79 123c be34 b2be fdcc 6c3e 62fc 003e
000000a0: 92f5 f13e 376b b93d 86bb cf3e 97b6 26bc
000000b0: 8321 9fbc 085b 903f 448e da3e df4a 0ebf
000000c0: 4f78 d53d 7406 b63e 807f 06be 5310 0fbf
000000d0: 2b95 0cbf 3e47 bcbe b6f9 22bf 2635 15bf
000000e0: 2ace dcbe 0d96 78bf 4c2a 26be c3e1 073f
000000f0: b4ac 20be 4241 f3be 482c 653e 3d17 043f
00000100: f963 f33e 4473 0f3e d802 983e 0b03 8d3e
00000110: 5301 263d 85ff 3b3f bd0d 833e 5e96 52be

gen.5.bias f4 [6]
0.35224617 -0.3849837 -0.05093585 -0.33007476 0.1605514 0.0722659
00000000: 9c59 b43e 951c c5be 1ca2 50bd 8fff a8be
00000010: 9667 243e 2500 943d

gen.7.weight f4 [2, 6]
1.129777 -1.2641574 -3.03072 -2.8439648 1.5898472 -2.7983968 -0.24226359 0.8871287
0.43101105 0.80263406 -0.59333163 0.5155638
00000000: 889c 903f e9cf a1bf 51f7 41c0 8503 36c0
00000010: 1d80 cb3f ef18 33c0 f213 78be de1a 633f
00000020: 7bad dc3e 6d79 4d3f 95e4 17bf fdfb 033f

gen.7.bias f4 [2]
0.69860524 -0.5250007
00000000: cbd7 323f 7266 06bf
