gan2field/IP_flags, IP_DF/versions/041_gen_model.pt (torch, 3983 bytes, 10 tensors)

gen.0.weight f4 [3, 4]
-0.19269806 0.08609584 0.070169784 -0.5326575 0.49510607 -0.1273769 -0.8138036 1.2186896
0.22911152 -0.4278974 0.0088489875 0.08954113
00000000: a452 45be 0453 b03d 2db5 8f3d 3e5c 08bf
00000010: 8b7e fd3e 176f 02be 6f55 50bf 05fe 9b3f
00000020: 369c 6a3e 5e15 dbbe 58fb 103c 5761 b73d

gen.0.bias f4 [3]
-1.344624 0.8532949 -1.179419
00000000: a41c acbf 8971 5a3f 34f7 96bf

gen.1.weight f4 [6, 3]
1.3500262 -0.043359533 0.9550601 0.67413753 -0.6815703 1.1093798 -0.27105415 -0.14519127
-0.6204811 0.18715495 -1.2698866 0.42929956 0.91854626 -0.7079403 0.9309384 -1.342842
1.2443937 -0.9934771
00000000: a9cd ac3f c499 31bd d27e 743f 4794 2c3f
00000010: 647b 2ebf 2800 8e3f 9cc7 8abe 05ad 14be
00000020: d9d7 1ebf 8ca5 3f3e a58b a2bf 27cd db3e
00000030: d925 6b3f 933b 35bf fb51 6e3f 3fe2 abbf
00000040: 4b48 9f3f 8454 7ebf

gen.1.bias f4 [6]
-1.2785853 -8.679846e-05 -0.8281057 0.19732256 0.15933533 0.351854
00000000: afa8 a3bf 9207 b6b8 bcfe 53bf ed0e 4a3e
00000010: cd28 233e 3526 b43e

gen.3.weight f4 [12, 6]
1.4418046 -0.5211595 1.0838125 -0.05898093 -0.5229176 -0.09628227 -0.022289671 -0.58751327
0.18127479 -0.09966379 -0.2274085 -0.642217 0.44346336 -0.14450651 -0.50297946 0.55466855
0.28880665 -1.1365359 1.7884874 -0.31314078 0.03077958 0.66424805 -0.06630125 -2.0407987
-0.06649246 -0.015888954 -0.19429606 -0.9786662 0.04759946 1.1477219 -0.32872584 -0.32839975
0.16787641 0.3296379 -0.29846212 -1.3592904 -0.3095821 -0.029381221 0.17926092 -0.6409548
-0.4328932 1.0783639 1.3794476 -0.5234199 0.91427845 0.026051214 -0.45084038 -0.9197887
-0.74945766 0.36009777 0.39965636 -0.6911242 0.1693744 1.3572198 0.5945628 0.02814476
-0.47606516 0.6555532 0.33767927 -1.2594273 1.3868766 -0.6845677 0.82311606 0.1387757
-0.25015622 -1.6120917 -1.5792196 0.53012687 -0.7903381 -0.076033674 0.25830027 0.8922355
00000000: 0e8d b83f b66a 05bf 5eba 8a3f fd95 71bd
00000010: eedd 05bf a42f c5bd d498 b6bc 4567 16bf
00000020: 19a0 393e 871c ccbd c6dd 68be 5568 24bf
00000030: a10d e33e 84f9 13be 43c3 00bf c2fe 0d3f
00000040: 77de 933e 027a 91bf 28ed e43f fd53 a0be
00000050: 7525 fc3c 290c 2a3f f3c8 87bd 729c 02c0
00000060: 332d 88bd 8d29 82bc 8cf5 46be de89 7abf
00000070: a7f7 423d 8de8 923f c14e a8be 0324 a8be
00000080: cbe7 2b3e 4dc6 a83e 07d0 98be 3afd adbf
00000090: 8c81 9ebe e3b0 f0bc 2d90 373e 9d15 24bf
000000a0: 2da4 ddbe d407 8a3f bd91 b03f d9fe 05bf
000000b0: 270e 6a3f 5b69 d53c 8dd4 e6be 4677 6bbf
000000c0: 75dc 3fbf bc5e b83e c29f cc3e 84ed 30bf
000000d0: 7c70 2d3e 61b9 ad3f 4535 183f d78f e63c
000000e0: d0be f3be 56d2 273f 4ce4 ac3e ea34 a1bf
000000f0: 2c85 b13f d43f 2fbf bcb7 523f 381b 0e3e
00000100: 7a14 80be 0559 cebf de23 cabf 65b6 073f
00000110: 9953 4abf 8bb7 9bbd ef3f 843e 8c69 643f

gen.3.bias f4 [12]
-0.96903 0.53552073 -0.1715056 -0.47258493 0.19477102 -0.13904853 0.16298582 -0.88591725
0.093550175 -0.040796455 -0.8284393 1.4633067
00000000: 5a12 78bf e317 093f 2a9f 2fbe a7f6 f1be
00000010: 0e72 473e bd62 0ebe c1e5 263e 79cb 62bf
00000020: 3c97 bf3d 2f1a 27bd 9914 54bf a24d bb3f

gen.5.weight f4 [6, 12]
-0.29511124 -0.00037630455 0.034682155 -1.0749644 -0.02517804 0.19263215 -0.022564938 -0.49107754
-0.23588423 0.032403048 -1.2915485 1.1591125 -0.93715346 0.038192224 0.03647598 -1.6866325
-0.24090753 0.48656082 -0.26682368 -0.8946802 -0.34910655 0.065145925 -1.487292 1.3185085
-0.36850846 1.1491704 1.2950107 -0.5009059 -1.154251 1.1670777 -0.91144156 -0.17174685
-1.2338066 1.2201225 -0.3533543 0.29451752 -0.53052187 -0.094778866 -0.32353398 -0.93370134
0.26254654 0.07197142 0.121960185 -0.68038535 0.12595086 -0.13866527 -0.9857412 0.76064426
0.90812737 -0.2574464 0.21813715 1.4790082 -0.029597536 -0.18975684 0.23160653 1.1315262
-0.11512793 0.091637686 1.2267879 -1.0231829 -0.38378793 0.6807152 0.72451085 -1.387059
-0.5181626 0.23594636 -0.29732126 -0.9148279 -0.228526 -0.55112267 -1.3091016 1.2743481
00000000: d218 97be be4a c5b9 e00e 0e3d 6f98 89bf
00000010: 2d42 cebc 5d41 453e 1bda b8bc 846e fbbe
00000020: a38b 71be 0fb9 043d 7651 a5bf cc5d 943f
00000030: 4ae9 6fbf 736f 1c3d d667 153d 93e3 d7bf
00000040: 77b0 76be 801e f93e 1d9d 88be c309 65bf
00000050: 18be b2be 3a6b 853d 965f bebf e3c4 a83f
00000060: 24ad bcbe 0418 933f e9c2 a53f 5e3b 00bf
00000070: 7fbe 93bf cd62 953f 3c54 69bf 68de 2fbe
00000080: 60ed 9dbf f92c 9c3f dbea b4be 00cb 963e
00000090: 48d0 07bf 6c1b c2bd 3fa6 a5be 0d07 6fbf
000000a0: 806c 863e c065 933d 43c6 f93d bc2d 2ebf
000000b0: 43f9 003e 45fe 0dbe 8959 7cbf 95b9 423f
000000c0: 097b 683f 04d0 83be 585f 5f3e 2450 bd3f
000000d0: 8876 f2bc 9e4f 42be 432a 6d3e dad5 903f
000000e0: 31c8 ebbd 8aac bb3d 6307 9d3f a8f7 82bf
000000f0: da7f c4be 5a43 2e3f 8b79 393f 268b b1bf
00000100: 4ea6 04bf ec9b 713e 7e3a 98be 2932 6abf
00000110: b802 6abe 6016 0dbf a490 a7bf d71d a33f

gen.5.bias f4 [6]
0.32524848 0.34458765 0.2593703 0.39793998 -0.435549 0.4785748
00000000: f886 a63e cb6d b03e 2fcc 843e cabe cb3e
00000010: 4700 dfbe c207 f53e

gen.7.weight f4 [2, 6]
0.17682417 -0.076623626 1.1444625 -0.40410545 -0.09905477 0.14418669 0.7546611 0.8975242
-0.224734 0.1157498 -0.33123893 0.8938918
00000000: 6511 353e d9ec 9cbd bf7d 923f e9e6 cebe
00000010: 3add cabd ada5 133e 7831 413f 25c4 653f
00000020: ab20 66be 3b0e ed3d 2698 a9be 18d6 643f

gen.7.bias f4 [2]
-0.369582 1.0233456
00000000: da39 bdbe fdfc 823f
