gan2field/IP_flags, IP_DF/versions/04_disc_model.pt (torch, 3275 bytes, 7 tensors)

disc.0.weight f4 [4, 2]
00000000: 375b 753f 8e00 93bf 1208 0c40 691f fa3f
00000010: fe55 08c0 0962 9d3f 7ba2 0bc0 b881 863e
0.9584231 -1.1484544 2.1879926 1.9540836 -2.1302485 1.2295543 -2.181792 0.26270843

disc.0.bias f4 [4]
00000000: 0021 a03e c761 cc3e b343 10be f953 8e3f
0.31275177 0.39918348 -0.14088325 1.1119376

disc.1.weight f4 [8, 4]
00000000: 9eb4 ce3e 0329 08c0 7616 0dbf 5d14 67be
00000010: c990 69bf 112f ba3e b73c 1840 a596 6f3e
00000020: 0db3 ebbe e863 cf3f 2f29 99be f8ad 17c0
00000030: db86 933f c28c 193f c90e 0cc0 a41b 11bf
00000040: 2d76 173f d3e8 1e3f e86d 24bf 4845 3040
00000050: 745c 3b3f f8da c83f 6a01 a6bf 91f4 68bf
00000060: bbac 1a3d 5a76 4dbd 070f 73bf 38af d1bf
00000070: 3e23 893f 8a36 9f3e 535d 03c0 8b5c 6dbf
0.40372175 -2.1275032 -0.551124 -0.22566362 -0.9123655 0.36364034 2.3787057 0.2339731
-0.46035042 1.6202364 -0.29914233 -2.3699932 1.152553 0.59980404 -2.1884024 -0.566828
0.59164697 0.6207401 -0.64230204 2.7542286 0.7318795 1.5691824 -1.2969182 -0.9099818
0.037762385 -0.050161697 -0.94944805 -1.6381598 1.071388 0.31096298 -2.052571 -0.92719334

disc.1.bias f4 [8]
00000000: 8e0c 51bf 1e8f 8b3f 6ede 94bf 0174 7c3f
00000010: 66ef 6740 20a3 0d3f d6f2 1dbf c96b a83f
-0.8165978 1.0903051 -1.163038 0.9861451 3.6239867 0.55327034 -0.61698663 1.3157893

disc.3.weight f4 [8, 8]
00000000: 8c5e a53f 72ea 663f 3b98 2340 c87a bc3e
00000010: e98f 3cbf 9c23 863f 66eb 6e40 18e1 1dbf
00000020: dab6 6a3f b6cb 8c3f 3df9 56c0 9651 f23f
00000030: f530 6abf 3573 fdbf 7ed2 c5bf 6a45 f93f
00000040: e295 2c40 5a11 8a3e a917 093e 4f1e 7d3f
00000050: d7ac d6bf c342 04c0 5b00 453f 9e7a 893f
00000060: fb8f bc3f ff57 963e 680f d0bf 38f4 cebf
00000070: 9a42 b1bf 84d4 8abe 5c68 7540 9b73 a8bf
00000080: 8f51 8dbf 4af4 23c0 1ab5 213f d84c 9abf
00000090: 79fb 9b3f f177 5640 7aeb 2a3e 778c c8bf
000000a0: ec41 c73a 06c1 b0bf 8da0 ad3f ba46 8c3e
000000b0: 08ec d13f f060 c6bc bffd 86bd 0f4b e33c
000000c0: 8310 11bf 3689 ffbe 3a40 6a3e 0673 c2bc
000000d0: c536 cc3e 32c6 a2bf 58e1 92c0 096f bebc
000000e0: e19e 03bf 3a09 efbf ce77 9c3f 965f 59bf
000000f0: 935f d53e ba20 953f ded8 d83e b6cf 21bf
1.2919478 0.90201485 2.5561664 0.36812425 -0.7365709 1.0479617 3.7331176 -0.6167159
0.9168526 1.0999668 -3.3589623 1.8931148 -0.9148095 -1.9800783 -1.5454862 1.9474308
2.6966481 0.26966363 0.13387932 0.9887437 -1.6771497 -2.0665748 0.7695367 1.0740545
1.4731439 0.2936401 -1.6254702 -1.616828 -1.384845 -0.27115262 3.8344946 -1.316028
-1.1040515 -2.5617852 0.63166964 -1.2054701 1.2186118 3.3510706 0.1669139 -1.5667866
0.0015202141 -1.3808906 1.3564621 0.2739771 1.6400156 -0.024216145 -0.06591367 0.027745752
-0.5666582 -0.4990937 0.22876063 -0.023736488 0.39885536 -1.2716734 -4.590008 -0.023246305
-0.51414305 -1.8674691 1.2224061 -0.8491148 0.4167448 1.1650612 0.42352957 -0.63207567

disc.3.bias f4 [8]
00000000: 7817 1640 0443 d43e 2fb0 4140 7014 bcbf
00000010: b52a b9bf 98b0 8e40 9680 1f3e 540a 9d40
2.3451824 0.4145738 3.0263784 -1.4693737 -1.4466158 4.459057 0.15576395 4.9075108

disc.5.weight f4 [1, 8]
00000000: 15d7 4dc1 d764 d1c0 d426 efc0 bcbf 7e40
00000010: b38f cd40 693b 05c1 7560 34c0 f228 00c1
-12.86501 -6.5435596 -7.4734898 3.9804525 6.4237914 -8.327004 -2.8183873 -8.009996
