gan2field/IP_flags, IP_DF/versions/04_gen_model.pt (torch, 3971 bytes, 10 tensors)

gen.0.weight f4 [3, 4]
000000 4a 1d 2f bd 7f ae b7 3d f8 f6 f4 3d 30 ee 85 bd
       -0.04275254 0.08968829 0.11961168 -0.06539571
000010 e4 d4 19 be 55 1d 7b 3e 30 d5 8f 3d 7d e3 bc 3e
       -0.15022618 0.24522908 0.07023084 0.3689231
000020 f7 8c d7 be d6 5e 8e bd 50 5e b9 be 6a f2 bb ba
       -0.42099735 -0.06951682 -0.36204767 -0.0014339213

gen.0.bias f4 [3]
000000 9b a8 5e 3e 0e dc 39 bc 97 dc ec 3e
       0.21744005 -0.011343969 0.46262047

gen.1.weight f4 [6, 3]
000000 d8 ee c0 be 60 15 5e be c3 aa 81 be 92 f3 f0 bd
       -0.37682223 -0.21687841 -0.25325593 -0.11765207
000010 e1 ac 0c be 1f a1 14 bf 7c 6b 67 3d 5c 86 56 3e
       -0.13737823 -0.5805835 0.05649899 0.20949692
000020 ae 4c 77 bd b5 69 7e bd 45 5b 22 3e c7 76 1f 3f
       -0.06037586 -0.06211253 0.15855129 0.62290615
000030 d8 a2 69 be bf 69 d5 be 56 52 95 3d 05 15 99 3c
       -0.22816026 -0.4168224 0.07291095 0.01868678
000040 a4 23 dd 3e 71 03 61 be
       0.43191254 -0.21973969

gen.1.bias f4 [6]
000000 e8 e5 18 3e aa 52 30 3e c1 55 76 3e 7d eb 9b be
       0.14931452 0.17219034 0.2405615 -0.304531
000010 dd 18 5a 3e 59 8e f5 3d
       0.21298547 0.11990041

gen.3.weight f4 [12, 6]
000000 20 08 44 be b8 79 34 bc a0 73 85 3e e6 08 b3 3d
       -0.19143724 -0.011015348 0.26064777 0.087419316
000010 cb 5b 9f be 2f 06 4d 3d 32 75 93 3d aa e2 af be
       -0.3112472 0.050054725 0.072000876 -0.34352618
000020 5a eb 15 be 09 07 a2 be 22 12 c1 3e 8c 18 40 be
       -0.14640561 -0.31645992 0.37709147 -0.18759364
000030 74 34 85 3e 0c 74 57 bd ec e9 a9 bc da 56 d3 be
       0.2601658 -0.052600905 -0.020741425 -0.412772
000040 50 fc b5 3d ed dd 9c 3e 15 43 b0 3d 98 e2 c3 3c
       0.088860154 0.30638066 0.08606545 0.02391176
000050 0e 6e dc 3d 4a ce 7a be 4a db c6 3c 91 76 16 bb
       0.10763179 -0.24492756 0.024274487 -0.0022958855
000060 38 c8 8a 3e 84 53 50 3e 12 a3 33 be 93 32 03 3c
       0.2710588 0.20344359 -0.17542675 0.008007663
000070 94 00 82 3d 49 68 8d be c7 29 80 3e 7a 74 58 be
       0.063477665 -0.27618626 0.25031874 -0.21138182
000080 0d 21 9f 3e 6b 41 a6 bd fe ec 7e 3d 17 f2 81 3e
       0.31079903 -0.08117946 0.062237732 0.25380012
000090 ba 9d 73 3d df a6 a6 bd 24 f3 ab 3e 7a f2 e7 3d
       0.05947659 -0.08137297 0.3358394 0.113255456
0000a0 5a cf 7f be 88 ff ae bd e9 97 e1 bd 79 c2 b4 be
       -0.24981442 -0.085448325 -0.11015303 -0.3530462
0000b0 8d 32 07 3e 3e f6 8e 3c c9 80 3a 3e 5f 3e 5b be
       0.13202877 0.017451402 0.1821319 -0.21410511
0000c0 e4 27 4e be 4c f2 85 be b6 6b bc 3e a4 37 ea bc
       -0.20132405 -0.2616142 0.36800927 -0.028590985
0000d0 85 49 a9 3e f1 ab d0 bd 5b 0c 8f be fd 3c 8b 3e
       0.33063903 -0.10189045 -0.27939114 0.27194968
0000e0 a0 3b c8 be dd d7 d7 bc ef bc 91 be a5 5e b6 bd
       -0.3910799 -0.026348049 -0.28464457 -0.08904771
0000f0 06 ce 45 3e 6c 30 22 bd 4e 9d a6 3e fe 49 cb 3e
       0.19316873 -0.03959696 0.3254189 0.3970489
000100 37 72 61 be a3 19 3d be ff 5d 3f 3e f0 aa df bd
       -0.22016226 -0.18466811 0.186882 -0.109212756
000110 41 70 ca 3e b1 64 4b 3e b0 21 32 3c 55 c3 89 3e
       0.39538768 0.1986263 0.01087229 0.2690684

gen.3.bias f4 [12]
000000 d3 90 23 3c 74 74 9f bd 54 3e 58 bd b9 c2 4c bc
       0.009983259 -0.077858835 -0.052793816 -0.012497597
000010 23 34 28 3d 6e bc 5f bd 4c 86 9b 3b bf b4 af bd
       0.041065346 -0.05462306 0.004746234 -0.085793965
000020 7d 07 22 be 44 7d e2 3d 40 5c ce ba 90 84 67 bd
       -0.15823169 0.11059049 -0.0015744045 -0.056522906

gen.5.weight f4 [6, 12]
000000 fd 6b 14 3e 88 d5 3c 3c a0 fc c7 bc 23 0d fc bd
       0.1449432 0.011525519 -0.024412453 -0.12307193
000010 1d 63 ba bc b4 ad 64 3d 10 dd 33 bb bb a1 d0 3d
       -0.022752339 0.05582972 -0.0027444996 0.10187098
000020 24 c3 21 be 66 93 61 bd 5e 8b 62 3e e0 f3 21 bd
       -0.15797096 -0.05507221 0.22123477 -0.039539218
000030 25 6b c3 bd f6 20 c1 3c 89 42 f3 bc 54 fe ab bd
       -0.095419206 0.023575287 -0.029694812 -0.083981186
000040 e6 bf 8b 3c c0 8a 22 3c de 25 38 3e 9d 0c 0e 3a
       0.017059278 0.009920776 0.17983195 0.00054187496
000050 7b d0 82 bd 12 4f 71 bd 64 d8 4c 3e e7 c2 7a 3d
       -0.06387421 -0.058913298 0.20004421 0.06122103
000060 a6 59 64 3c bb 14 81 3d 1a 08 69 3e d0 1c c4 3d
       0.0139373895 0.06302782 0.22756997 0.09575808
000070 d5 05 b3 bb 40 7a 54 3d 74 01 1b bd ea 73 fb 3c
       -0.0054633417 0.0518744 -0.037843183 0.03069492
000080 5e 20 8d bd 06 c0 c4 bd 83 b7 0b 3d 39 ae ac bd
       -0.06890939 -0.09606938 0.034110557 -0.08431668
000090 cd c6 fb 3d 18 67 32 3c d4 23 6a bd cd 38 5a 3d
       0.122937776 0.010888837 -0.057163075 0.053276826
0000a0 68 ca f2 bd 32 85 14 3d 60 56 81 bd 80 0a 34 bd
       -0.11855012 0.036259837 -0.06315303 -0.043955326
0000b0 54 66 4a 3e 55 f1 03 3e 7e eb 25 bd a3 d0 8b bd
       0.19765598 0.1288503 -0.040507786 -0.06826904
0000c0 38 d2 c8 3d 5d b1 7a bd 7c 84 22 bb 5a be 09 bc
       0.09805721 -0.061204303 -0.0024798205 -0.0084072
0000d0 bf e8 9e bd b9 cf 11 bd 3d 10 65 3d 38 d0 25 3c
       -0.077592365 -0.03559849 0.05592369 0.010120444
0000e0 fd 84 50 3d 20 21 52 bc 0a 2f 56 bc 0e 34 0f 3b
       0.050908078 -0.01282528 -0.013072738 0.0021851095
0000f0 73 96 79 bd 50 74 c8 bd 18 c2 01 3d 9a ca d7 3c
       -0.060934495 -0.0978781 0.031679243 0.026341725
000100 91 84 cd 3c 1c 31 32 be be 27 99 3d 1e aa 8d bc
       0.025087627 -0.17401546 0.07478283 -0.017293032
000110 49 e2 3c 3d ff 96 17 3e 7d 11 17 be 41 95 78 3c
       0.04611424 0.14803694 -0.14752765 0.015172304

gen.5.bias f4 [6]
000000 4a 47 5e be db 04 06 3c 5f a9 48 3d 90 9d 05 bd
       -0.21706882 0.008179869 0.04898965 -0.032620966
000010 0e 2a 3c bc 59 78 be bd
       -0.011484636 -0.09300298

gen.7.weight f4 [2, 6]
000000 ec dd 2b bd 84 18 8e 3c 56 ed 38 3d 8d 85 b8 bb
       -0.041959688 0.017345674 0.045148216 -0.005631155
000010 6c 12 91 3a d0 7d 49 bd ef a9 9d be 5b d3 28 bd
       0.0011068112 -0.04919225 -0.30793712 -0.04121719
000020 4b 0b 7a 3c 19 13 2c be 32 81 32 bd a3 b9 80 be
       0.0152614815 -0.1680416 -0.04358024 -0.2514163

gen.7.bias f4 [2]
000000 c5 2c 0b 3f ba 20 38 3d
       0.5436519 0.044953085
