gan2field/IP_flags, IP_DF/versions2/gen_6/0_gen_model.pt (torch, 3959 bytes, 10 tensors)

gen.0.weight f4 [3, 4]
0	0x3d1c69fe	0.03818702
1	0xbe8d175a	-0.27556878
2	0x3e953ee9	0.2914956
3	0x3d29a387	0.041415717
4	0x3de397cd	0.11112938
5	0xbe5bf7b0	-0.21481204
6	0x3e49400a	0.19653335
7	0x3e01c5d9	0.12673129
8	0x3e2352d2	0.15949562
9	0x3e7601b3	0.24024086
10	0xbe7a2c7f	-0.24431036
11	0x3de28955	0.1106135

gen.0.bias f4 [3]
0	0x3f10861b	0.5645463
1	0xbe5b27de	-0.21401927
2	0x3e6c9b73	0.23106174

gen.1.weight f4 [6, 3]
0	0x3e5bc507	0.21461879
1	0x3ac90228	0.0015335726
2	0x3ed86a73	0.42268714
3	0xbcd017de	-0.025402006
4	0xbeada617	-0.3391578
5	0xbd36d466	-0.044636153
6	0xbe7a2ebb	-0.24431889
7	0xbdda6955	-0.10664622
8	0x3e04d6f1	0.12972619
9	0xbf247584	-0.64241815
10	0x3e9abfea	0.30224544
11	0xbe81070e	-0.25200695
12	0x3eee7b01	0.4657822
13	0xbeba933e	-0.36440462
14	0x3e45ef42	0.19329551
15	0x3ef57b9d	0.47945872
16	0xbe2be1f0	-0.16785407
17	0x3e8f559c	0.27995002

gen.1.bias f4 [6]
0	0x3eecae51	0.46226743
1	0x3f258ebf	0.6467094
2	0x3f3e1035	0.7424348
3	0xbe705955	-0.23471577
4	0x3f27a53e	0.65486515
5	0x3f417142	0.7556344

gen.3.weight f4 [12, 6]
0	0x3e2b2a16	0.16715273
1	0xbd142f1c	-0.03617774
2	0x3d94d082	0.07266332
3	0x3e86756a	0.26261455
4	0xbe8a62e1	-0.27028564
5	0xbed783b9	-0.42092684
6	0x3ef6bf9a	0.48193055
7	0x3f221a3c	0.6332128
8	0x3d0d337f	0.03447294
9	0xbf31fd51	-0.69527155
10	0x3f150306	0.5820774
11	0x3da320fd	0.079652764
12	0xbec351f0	-0.3814845
13	0xbeb27d6d	-0.34861317
14	0x3db3790d	0.08763323
15	0x3d0b6bdb	0.034038406
16	0xbe331b9f	-0.17491005
17	0xbebbff63	-0.36718282
18	0x3ef6c7bb	0.48199257
19	0x3f2db1ac	0.6784923
20	0xbdd216d7	-0.102582626
21	0xbf01444d	-0.50494844
22	0xbbdaf3ff	-0.0066819186
23	0x3ec9be54	0.3940302
24	0xbde350b4	-0.11099377
25	0x3f236398	0.63823843
26	0x3f283035	0.6569856
27	0xbf101c4f	-0.56293195
28	0x3f1255bd	0.57162076
29	0x3f18bcf8	0.59663343
30	0xbf2f87ac	-0.68566394
31	0xbeec852c	-0.46195352
32	0xbe531fbe	-0.20617577
33	0x3eb9af06	0.36266345
34	0xbf4a6f31	-0.79075915
35	0xbe6f68bd	-0.23379798
36	0x3e85f555	0.26163736
37	0x3f0ad42d	0.54230005
38	0x3e4a8870	0.1977861
39	0xbe82ae1b	-0.25523457
40	0x3ea58575	0.32328382
41	0x3e803ddd	0.25047198
42	0xbf15ecc3	-0.58564395
43	0xbdecce81	-0.11562825
44	0xbf1134b7	-0.5672106
45	0x3e926f2e	0.28600448
46	0x3d3952a0	0.045244813
47	0xbce9abfe	-0.028524395
48	0x3e448c47	0.19194137
49	0xbe7aba01	-0.24485017
50	0x3d5f0e23	0.05445684
51	0xbe2cda10	-0.16880059
52	0x3ee924b0	0.45535803
53	0x3e909730	0.28240347
54	0xbe8e4fd3	-0.27795276
55	0xbed19c4a	-0.40939552
56	0xbdcb8ac3	-0.09938576
57	0x3f336ad6	0.70084894
58	0xbf096eba	-0.5368458
59	0xbeb5f0fa	-0.35535413
60	0x3c54e0b9	0.012993031
61	0x3f124b0e	0.57145774
62	0x3ee20f64	0.44152367
63	0xbea48b4d	-0.32137528
64	0x3f112f1e	0.5671252
65	0x3efbab6b	0.4915422
66	0xbe9891b2	-0.29798657
67	0xbef0d39b	-0.47036442
68	0xbed5acdc	-0.41733444
69	0x3ec963af	0.39333865
70	0xbf0c6394	-0.54839444
71	0xbe29abd4	-0.16569453

gen.3.bias f4 [12]
0	0xbe78221e	-0.24231765
1	0xbdcf12a1	-0.10110975
2	0xbed144ca	-0.40872794
3	0x3edfc076	0.43701524
4	0x3dc6aec4	0.09701303
5	0xbe65f807	-0.22457896
6	0x3ee707c5	0.45123115
7	0xbf18349e	-0.5945529
8	0x3ef03323	0.46914014
9	0xbda981a0	-0.08276677
10	0x3e800b29	0.25008515
11	0xbd0cd7ff	-0.034385677

gen.5.weight f4 [6, 12]
0	0xbb90fcd5	-0.004424671
1	0xbd8a1a58	-0.06743306
2	0x3e941862	0.28924853
3	0xbe5bf280	-0.21479225
4	0xbe3c94e4	-0.18416172
5	0x3f058037	0.52148765
6	0xbe480838	-0.19534385
7	0x3f030e6c	0.5119388
8	0xbe52e7e4	-0.20596272
9	0x3edb6282	0.42848593
10	0xbe8237ec	-0.2543329
11	0x3ed1aed4	0.40953696
12	0x3d66b647	0.056326177
13	0x3ee036aa	0.43791705
14	0x3d9c2d64	0.07625845
15	0x3ea72890	0.32648134
16	0x3e5a661b	0.21328013
17	0xbf454ef1	-0.7707358
18	0xbcff074a	-0.031131405
19	0x3d8ada56	0.067799255
20	0xbdc81eb2	-0.0977148
21	0xbec92a93	-0.39290294
22	0x3dac0e27	0.08401137
23	0xbf1c1734	-0.60972905
24	0xbe76bc4e	-0.2409527
25	0x3e34262a	0.17592683
26	0xbe9959ab	-0.29951224
27	0x3f15c6df	0.5850658
28	0x3f0f914a	0.5608107
29	0xbefb18aa	-0.49042255
30	0x3e35c119	0.17749442
31	0xbf19ac01	-0.6002808
32	0x3d13753d	0.03600048
33	0xbebc8600	-0.36820984
34	0x3efc306c	0.49255693
35	0xbebbead3	-0.36702594
36	0xbeefda2d	-0.46846142
37	0xbd7d573c	-0.06185077
38	0xbdc2e81b	-0.09516927
39	0x3f1587f8	0.58410597
40	0x3f01ebc3	0.5075037
41	0xbe98e3b9	-0.2986124
42	0x3ef8d01f	0.48596284
43	0xbe1f9ef6	-0.15587983
44	0x3e04ebad	0.12980528
45	0xbe7de17f	-0.24793051
46	0x3eb8351f	0.35978028
47	0xbec218d9	-0.37909582
48	0x3dfea5d1	0.12433971
49	0x3de0cae4	0.10976198
50	0x3e96732c	0.29384744
51	0xbea1555e	-0.31510442
52	0xbecbffdb	-0.3984364
53	0x3de285a4	0.11060646
54	0xbeb7372f	-0.3578429
55	0x3db61a72	0.08891763
56	0xbe8c963d	-0.27458373
57	0x3eff4410	0.49856615
58	0xbeacf849	-0.33783177
59	0x3e30e0e7	0.17273293
60	0xbefb5aa4	-0.4909259
61	0x3e0a9e6b	0.13536994
62	0xbeaf7177	-0.34266254
63	0x3f197664	0.59946275
64	0x3d8cfce6	0.06884174
65	0xbe60d1bc	-0.21955007
66	0x3ee298d5	0.44257227
67	0xbe9dc781	-0.30816272
68	0x3e90df06	0.28295153
69	0xbed72433	-0.42019805
70	0x3e9d4f53	0.30724582
71	0xbee69f93	-0.4504362

gen.5.bias f4 [6]
0	0xbe14fb3d	-0.14548965
1	0xbd8c03ad	-0.068366386
2	0x3d992ac1	0.07478858
3	0x3e86b55a	0.26310235
4	0xbdc08465	-0.09400252
5	0x3e2b4387	0.16724978

gen.7.weight f4 [2, 6]
0	0xbf920d58	-1.1410322
1	0x3c206d67	0.009791709
2	0x3f7ae8af	0.98011297
3	0x3f8fddb9	1.1239539
4	0xbf7ebcaa	-0.9950663
5	0x3f67a174	0.9048073
6	0x3edf98ec	0.43671358
7	0xbe5bcd14	-0.2146495
8	0xbf21db6e	-0.6322545
9	0xbf0d9a40	-0.5531349
10	0x3e4fc30e	0.20289251
11	0xbf02cea2	-0.51096547

gen.7.bias f4 [2]
0	0x3f89265f	1.0714835
1	0xbf2f88af	-0.6856794
