gan2field/IP_flags, IP_DF/versions2/gen_6/1_gen_model.pt (torch, 3959 bytes, 10 tensors)

gen.0.weight f4 [3, 4]
0.06459224 0.31626782 -0.25381312 -0.3103732 0.07311706 0.06488173 -0.33969596 -0.41259372
0.015569247 -0.15003805 0.42017302 0.4626016
00000000: f048 843d dbed a13e cbf3 81be 3ce9 9ebe
00000010: 66be 953d b6e0 843d a1ec adbe 7c3f d3be
00000020: 2816 7f3c 93a3 19be eb20 d73e 1eda ec3e

gen.0.bias f4 [3]
0.024153063 -0.5731104 -0.21603706
00000000: a5dc c53c 5db7 12bf d238 5dbe

gen.1.weight f4 [6, 3]
-0.39779428 -0.2945616 -0.15596724 -0.097366564 0.22558095 0.15486294 0.34673277 -0.20183814
0.14905787 -0.5754042 0.56694615 0.84687424 0.03067222 0.14296497 0.15898368 -0.12668625
-0.33876872 -0.3619346
00000000: b1ab cbbe c7d0 96be e0b5 1fbe 1f68 c7bd
00000010: b1fe 663e 6494 1e3e f586 b13e a8ae 4ebe
00000020: a0a2 183e b14d 13bf 6223 113f c0cc 583f
00000030: 4f44 fb3c 6965 123e 9ecc 223e 0aba 01be
00000040: 1873 adbe 7e4f b9be

gen.1.bias f4 [6]
0.24799398 -0.8428336 0.30757424 -0.043298014 -0.45149598 0.7443409
00000000: 22f2 7d3e f1c3 57bf 5f7a 9d3e 4259 31bd
00000010: 7b2a e7be 208d 3e3f

gen.3.weight f4 [12, 6]
0.02950156 -0.60798526 0.27507696 -0.17503545 0.011365821 0.5466031 0.3989343 -0.5974595
0.20415105 -0.3798269 -0.10262983 0.38875407 0.29196063 0.032269903 -0.34457973 -0.35475093
0.34772116 0.12296649 -0.15256326 0.1347694 -0.0612607 0.90030384 0.23331714 -0.27444416
-0.26018262 0.33632088 -0.15420489 0.2526152 0.542895 -0.4461959 0.29332918 -0.47072604
0.41157636 -0.4548631 0.005488001 0.45015427 0.23589438 -0.09408842 0.24708194 -0.14886203
-0.5317197 0.34159487 -0.052238386 0.09498507 -0.03249867 -0.21611689 0.5023751 -0.5817888
0.12352268 0.17031561 -0.45534584 -0.22321045 0.022167848 0.19993256 0.22190045 -0.23730828
0.7872582 -0.081820585 -0.56267244 0.63401103 0.24224028 -0.20717409 0.5518375 -0.72376907
0.079994515 -0.14898062 -0.09898781 -0.13809192 0.3189423 -0.16130047 0.086314075 0.22324936
00000000: 41ad f13c eca4 1bbf e3d6 8c3e 7e3c 33be
00000010: b537 3a3c 2eee 0b3f 1e41 cc3e 1bf3 18bf
00000020: f90c 513e ac78 c2be 972f d2bd c60a c73e
00000030: dd7b 953e 722d 043d c16c b0be eaa1 b5be
00000040: 8208 b23e dbd5 fb3d 8b39 1cbe fd00 0a3e
00000050: 80ec 7abd 507a 663f b0ea 6e3e f283 8cbe
00000060: a836 85be 4032 ac3e e3e7 1dbe c856 813e
00000070: 2bfb 0a3f ca73 e4be 3e2f 963e 0103 f1be
00000080: 23ba d23e d1e3 e8be b0d4 b33b 9f7a e63e
00000090: 4c8e 713e 6eb1 c0bd 0c03 7d3e 4a6f 18be
000000a0: c81e 08bf 86e5 ae3e ebf7 55bd 8887 c23d
000000b0: 531d 05bd bf4d 5dbe a89b 003f 1cf0 14bf
000000c0: 75f9 fc3d 3767 2e3e 1723 e9be 4891 64be
000000d0: 5999 b53c 1fbb 4c3e df39 633e f100 73be
000000e0: c189 493f 8d91 a7bd 4d0b 10bf 8c4e 223f
000000f0: d60d 783e 7225 54be 3945 0d3f ee48 39bf
00000100: 2ad4 a33d 608e 18be 1fba cabd f867 0dbe
00000110: 684c a33e f32b 25be 6fc5 b03d 7b9b 643e

gen.3.bias f4 [12]
0.20670459 0.1444911 -0.43632942 -0.3986462 0.014285451 0.5989254 0.5003174 -0.16848674
0.15214714 0.82368684 0.2650002 0.5921398
00000000: 5eaa 533e 7af5 133e 9266 dfbe 5b1b ccbe
00000010: 860d 6a3c 2d53 193f cd14 003f ca87 2cbe
00000020: 76cc 1b3e 24dd 523f 1bae 873e 7996 173f

gen.5.weight f4 [6, 12]
0.3790095 0.4375765 -0.28375593 -0.3360069 -0.25990352 0.40345702 0.28130338 -0.28073105
0.043069445 0.1800868 0.2513291 0.25040022 -0.4483568 -0.23364583 0.10072495 0.09233408
0.5014029 -0.43787506 -0.19539058 0.29286617 0.06950361 -0.38780093 0.043651108 -0.49772468
-0.491699 -0.5715923 0.2123235 -0.008643463 0.70659286 -0.33669925 -0.6642077 0.790418
0.101364575 -0.721817 0.16976082 -0.8226916 0.48920247 0.3631964 -0.18664831 -0.013660867
-0.21523537 0.49642152 0.49767533 -0.019747011 -0.027586525 0.48810738 0.20757173 0.19518065
-0.3367175 -0.62984 0.048992738 -0.05493089 0.15583254 -0.12854083 -0.4826833 0.5651518
-0.045846097 -0.61535126 -0.37873316 -0.73685086 0.2090802 0.21558256 0.058512654 -0.5137001
-0.25497964 0.37114686 -0.010512471 -0.033902753 -0.086737536 0.35864455 0.25404638 0.065773964
00000000: 880d c23e 070a e03e 7548 91be 1909 acbe
00000010: 1312 85be eb91 ce3e ff06 903e fbbb 8fbe
00000020: 9669 303d ad68 383e 35ae 803e 7534 803e
00000030: 068f e5be da40 6fbe e248 ce3d a619 bd3d
00000040: f15b 003f 2931 e0be 7814 48be 8ef2 953e
00000050: e957 8e3d d88d c6be 81cb 323d c5d5 febe
00000060: f9bf fbbe df53 12bf 556b 593e 509d 0dbc
00000070: 45e3 343f d863 acbe 8409 2abf d658 4a3f
00000080: 3b98 cf3d 00c9 38bf c8d5 2d3e eb9b 52bf
00000090: bf78 fa3e e1f4 b93e bc20 3fbe d4d1 5fbc
000000a0: a966 5cbe f62a fe3e 4dcf fe3e 7cc4 a1bc
000000b0: 23fd e1bc 36e9 f93e af8d 543e 70dd 473e
000000c0: 3c66 acbe 323d 21bf 9cac 483d 37ff 60bd
000000d0: 9192 1f3e 35a0 03be 4422 f7be caad 103f
000000e0: 1ec9 3bbd a987 1dbf 50e9 c1be 42a2 3cbf
000000f0: 1f19 563e adc1 5c3e f7aa 6f3d da81 03bf
00000100: b18c 82be f606 be3e 803c 2cbc 9ddd 0abd
00000110: 73a3 b1bd 42a0 b73e 5e12 823e 80b4 863d

gen.5.bias f4 [6]
0.2864016 -0.36328167 -0.4397666 0.356902 -0.39348957 0.22295037
00000000: 3ba3 923e 0e00 babe 1629 e1be dcbb b63e
00000010: 7777 c9be 1a4d 643e

gen.7.weight f4 [2, 6]
0.086555876 0.35020164 0.7044069 -0.16414054 0.20397735 0.32797202 0.5049208 -0.37899715
-0.4607164 0.42132092 -0.27801874 -0.106253386
00000000: 3544 b13d a14d b33e 0354 343f 7514 28be
00000010: 70df 503e f3eb a73e 7d42 013f ea0b c2be
00000020: 05e3 ebbe 60b7 d73e 7958 8ebe 609b d9bd

gen.7.bias f4 [2]
0.19274977 -0.12675318
00000000: 3260 453e 96cb 01be
