gan4field/versions/00_disc_model.pt (torch, 3983 bytes, 9 tensors)

disc.0.weight f4 [4, 4]
0	0x3ff8cd74	1.9437699
1	0x3fbce558	1.475749
2	0xbfbec6e9	-1.4904453
3	0x3dcda61b	0.10041448
4	0xbfbfed33	-1.4994262
5	0xbe64292e	-0.22281334
6	0x3fda7f74	1.7070146
7	0xbf549a98	-0.8304839
8	0xbf6be5bd	-0.9214743
9	0xbb926ba8	-0.0044684
10	0x3fac2b0f	1.345064
11	0xbf290078	-0.6601634
12	0x3ea3cdcc	0.31992948
13	0x3f44f8d3	0.76942176
14	0x3f2a85e7	0.6661057
15	0xbf3640d5	-0.71192676

disc.0.bias f4 [4]
0	0xbf005a65	-0.5013793
1	0xbf17586e	-0.5911931
2	0x3f04ca33	0.5187103
3	0x3f92cc08	1.1468515

disc.1.weight f4 [8, 4]
0	0x3f09a939	0.5377384
1	0x3fd7951b	1.6842378
2	0x3f9b1a4c	1.21174
3	0x3f1d1302	0.6135713
4	0x3f896f69	1.0737125
5	0x3dab1427	0.08353453
6	0x3ef7223d	0.4826831
7	0x3f35b3ab	0.70977277
8	0xbfb21c03	-1.3914798
9	0x3f5ee065	0.8706115
10	0x3f9cd3ea	1.2252171
11	0x3e4b51d4	0.19855434
12	0xbf618460	-0.88092613
13	0x3ecf2d06	0.40464038
14	0x3f6f854a	0.9356276
15	0x4058455a	3.379233
16	0xbf6f2b94	-0.9342587
17	0x3ffb4e85	1.9633337
18	0x3f4a8b9f	0.79119295
19	0xbf6150d1	-0.8801394
20	0x3d284507	0.041081455
21	0x3f96e2f3	1.178801
22	0x3e48fbff	0.19627379
23	0xbeafdaed	-0.34346715
24	0x40370277	2.8595254
25	0x3e04ccf1	0.12968804
26	0xbf433625	-0.76254493
27	0x3f2cd104	0.6750643
28	0xbe32b13b	-0.1745042
29	0x3f96ee8c	1.1791549
30	0x3f254b9d	0.645685
31	0xbebce4fe	-0.36893457

disc.1.bias f4 [8]
0	0xbda5412f	-0.080690734
1	0x3f2fb2d9	0.68632275
2	0x3b412d13	0.002947633
3	0x3e9b2ea7	0.3030903
4	0xbf2b4e1d	-0.66916066
5	0xbfce07e4	-1.6096158
6	0xbf14172c	-0.5784786
7	0xbfa0a0ff	-1.2549132

disc.3.weight f4 [8, 8]
0	0x3ec1c75d	0.37847415
1	0x3f28d66b	0.65952176
2	0xbfac4d7c	-1.3461146
3	0x3e1b56d7	0.15169846
4	0xbe2963df	-0.16542004
5	0x3f969820	1.1765175
6	0x3fb70743	1.4299091
7	0x3fb77e0b	1.433534
8	0xbfc8fe80	-1.5702667
9	0x3f9610c6	1.1723869
10	0xc021d5ba	-2.5286698
11	0xbd4adbd7	-0.049526062
12	0xbd4b08fc	-0.049569115
13	0x3eaa2d0f	0.33237502
14	0xbeb053bd	-0.34438887
15	0x3e9b7248	0.30360627
16	0xbf1cc9bf	-0.6124534
17	0xbf40d43c	-0.75323844
18	0x3e9a0f2a	0.30089694
19	0xbfa3dfe6	-1.2802703
20	0xbf50745e	-0.8142756
21	0xbebb5c8b	-0.36594042
22	0xbeaf15df	-0.34196374
23	0xbf2d6f5a	-0.67748034
24	0xbf0be4ae	-0.5464581
25	0xbfa74dd9	-1.3070632
26	0x3fa0d2a1	1.2564279
27	0x3f7f3c28	0.99701166
28	0x3f0e79c8	0.55654573
29	0xbfa0c1d2	-1.2559149
30	0xbef273ed	-0.4735407
31	0xbf3fb341	-0.74882895
32	0xbfaaf05c	-1.3354602
33	0xbfc3d342	-1.5298846
34	0xbf87d19c	-1.0610843
35	0xbe19a16c	-0.15002984
36	0xbf8f52f4	-1.119719
37	0xbf06d0ec	-0.5266254
38	0x3f07e8fc	0.5308988
39	0xbd869766	-0.06571846
40	0x3ddad318	0.10684794
41	0xbc96eae4	-0.018422551
42	0x3fd41d85	1.6571509
43	0x3f953759	1.1657516
44	0x3dc5c12e	0.09655987
45	0xbe980c94	-0.29697096
46	0xbfd10e5a	-1.6332505
47	0xbed11ef0	-0.40843916
48	0x3f044959	0.5167442
49	0xbf1af259	-0.60526043
50	0xbf969390	-1.1763783
51	0x3e1732b3	0.14765434
52	0x3e2a3d10	0.16624856
53	0x3f5fe1ea	0.8745409
54	0x3f864839	1.0490791
55	0x3f82115a	1.0161545
56	0x3d87332a	0.06601556
57	0xbf58fcd0	-0.8476076
58	0x3fc86da7	1.5658463
59	0xbfafe3e7	-1.3741425
60	0xbf16ec71	-0.5895453
61	0x3ea071ca	0.31336814
62	0xbe21d745	-0.15804775
63	0xbe865de8	-0.2624352

disc.3.bias f4 [8]
0	0x3ef50cea	0.47861415
1	0xbf9d1b64	-1.2273984
2	0x3f457d17	0.77143997
3	0xbef053b0	-0.46938848
4	0x3f354495	0.7080777
5	0xbf0801e3	-0.5312788
6	0x3fb3f0a3	1.4057811
7	0x3f23997b	0.6390607

disc.5.weight f4 [4, 8]
0	0xbeaf5c16	-0.34249943
1	0xbe98c5c6	-0.2983839
2	0x3dcdf079	0.10055632
3	0xbfcc1563	-1.5944027
4	0x3fc21769	1.5163394
5	0x3f0d868a	0.55283415
6	0x3f9df801	1.234131
7	0x3e42c6d8	0.19021165
8	0x3f3deeb5	0.74192363
9	0xbf8b0b95	-1.086291
10	0x3b421402	0.0029613976
11	0xbede4258	-0.4340999
12	0x3e7191c7	0.23590766
13	0xbe9f1dbe	-0.3107738
14	0x3e0d1ab6	0.1377972
15	0x3f7df6d4	0.99204755
16	0x3fdf8451	1.7462255
17	0xbdd40a5f	-0.10353541
18	0xbf011306	-0.5041965
19	0xbd1a90f1	-0.037735883
20	0xbea1629b	-0.31520543
21	0xc019c4aa	-2.4026284
22	0x400fe197	2.248144
23	0x3e47777c	0.19479173
24	0xbf6e8782	-0.9317552
25	0x4040f766	3.0151
26	0xbe86206e	-0.26196617
27	0x3f60bd9e	0.8778933
28	0xbfcb9510	-1.5904865
29	0x4001e8a0	2.0298233
30	0xbf6c8971	-0.9239722
31	0xbfae4cd3	-1.3617195

disc.5.bias f4 [4]
0	0x3feffc28	1.8748827
1	0x3fcfd552	1.6236975
2	0x3f4a90b1	0.7912703
3	0xbfb5288f	-1.4153003

disc.7.weight f4 [1, 4]
0	0xc0804a83	-4.0090957
1	0xc087c7b3	-4.2431273
2	0xc071591b	-3.7710636
3	0x4103e373	8.24303
