gan4field/versions/00_gen_model.pt (torch, 5191 bytes, 12 tensors)

gen.0.weight f4 [4, 8]
000000 05 51 eb 3e 55 01 a1 3e 49 d7 b7 3f 03 71 a6 3f
       0.4596025 0.3144633 1.4362575 1.3003238
000010 4c 8d 14 3f 6b 28 2f 3f 71 25 ab bf eb 5a 93 be
       0.580281 0.6842105 -1.3370801 -0.28780302
000020 f7 14 c3 bf 52 a2 4c bf a2 43 e9 bf af f0 23 bf
       -1.5240773 -0.7993518 -1.8223765 -0.6403913
000030 6f 8f 4c be ac 03 1f 3e f4 89 eb 3f e7 c7 2c be
       -0.1997659 0.15528744 1.8401475 -0.16873132
000040 a5 8d 69 bf de 17 c0 be 40 b0 97 bf 81 da 0b bf
       -0.9123176 -0.3751821 -1.1850662 -0.54630286
000050 f6 6a 0d bf 9e 73 1e 3f 24 ef bb 3f 4a fd 4c bc
       -0.55241334 0.6189517 1.4682355 -0.012511561
000060 38 b9 9b 3f c2 a7 6f bd 16 27 c1 3e c6 1e d7 3d
       1.2165899 -0.058509596 0.37725133 0.105039164
000070 5f aa ea bd 41 a4 c9 bf 5b 5f 8a bf ec 9c a5 3e
       -0.11458277 -1.5753251 -1.081035 0.32346284

gen.0.bias f4 [4]
000000 fb 49 d7 bc e8 d8 7c 3f e9 8a da 3f c3 2d 16 c0
       -0.026280394 0.9876847 1.7073642 -2.346543

gen.1.weight f4 [8, 4]
000000 0c fc dd be 94 4e b1 3f f0 4f 88 3f 3d 15 4c bf
       -0.4335636 1.3852105 1.0649395 -0.7971991
000010 44 a8 aa 3e dd dd 56 bf 17 91 94 bf df a3 11 3f
       0.333315 -0.83932287 -1.1606778 0.5689067
000020 bb d0 de 3f 85 20 0b c0 13 7e 1c bf 8b ca 1f be
       1.740745 -2.1738598 -0.61129874 -0.15604608
000030 26 6e 35 bf 89 6e e8 3f 17 2d 18 3f 04 1b 88 bf
       -0.708712 1.8158733 0.594438 -1.0633245
000040 81 ea cc be 6a 4e c7 3f b7 03 a9 3f 8c b5 71 bf
       -0.40022662 1.5570805 1.3204259 -0.94417644
000050 37 e4 df 3f b7 ea 19 c0 fb 00 8c bf 69 ad 15 3f
       1.7491521 -2.4049509 -1.0937799 0.5846773
000060 8e ce b4 be ec 0d 2f 3e 1f 7f 00 3e c1 26 07 40
       -0.3531384 0.17095155 0.12548493 2.1117404
000070 d5 ed 97 bf 1e 5e d5 be 18 56 a2 be 59 d6 f9 3f
       -1.1869456 -0.41673368 -0.3170631 1.9518539

gen.1.bias f4 [8]
000000 a8 80 c7 3e d5 11 5b bf 4f 6a d9 be c2 77 f0 3e
       0.38965344 -0.85574085 -0.4246392 0.46966368
000010 0a 89 71 3f 31 d8 fc 3e 71 a4 15 bf 65 34 ab bf
       0.9434973 0.4938369 -0.5845404 -1.3375365

gen.3.weight f4 [12, 8]
000000 30 d5 08 3f 43 a4 4b be a7 b9 f6 bf 7c 83 b5 3e
       0.534503 -0.1988688 -1.9275407 0.35451877
000010 53 f8 0f 3d 6e 7d da bf 6c a0 ec 3d b9 86 3a 3f
       0.03514893 -1.7069528 0.115540355 0.7286182
000020 4f 6b 3d 3f 67 2d de 3d 86 81 bb bf 20 3b 89 3f
       0.73991865 0.108485036 -1.4648902 1.0721169
000030 92 49 58 3e 0e 17 c9 bf 1e 91 af 3e 49 3e 86 3f
       0.21121815 -1.5710161 0.34290403 1.0487758
000040 51 4b 8f 3f ac 44 92 be 96 07 57 3d 60 c5 7b 3f
       1.119486 -0.28568017 0.05249747 0.98348045
000050 fe 16 ff 3f a2 46 e0 bd 8c a0 1b be 09 84 dc bf
       1.9928892 -0.10950972 -0.15197963 -1.7227794
000060 aa 2b a4 bf 01 e5 d8 3d 90 76 d3 3e 04 f4 29 c0
       -1.2825825 0.10590554 0.41301394 -2.6555185
000070 c4 9a f1 bf 9f 4d 86 3f 5b 07 39 3c ea a9 0a be
       -1.8875356 1.0492438 0.011293258 -0.1354138
000080 bb 69 90 3f 95 1b 6f 3e fd 5e 86 bf 9b c6 e1 3f
       1.1282266 0.23350365 -1.0497738 1.7638735
000090 ac c7 f3 3f cb 6c 91 bf 2d a1 53 bf 81 d5 b9 3e
       1.904531 -1.1361326 -0.8266781 0.36295703
0000a0 2b f5 6c be 37 5d d1 3d 80 4a 2c 3f c9 52 44 3f
       -0.23140399 0.102228574 0.6730118 0.7668882
0000b0 be 17 61 3f 25 5f 4b 3e 3f 46 55 bf e6 06 1c c0
       0.8792685 0.19860514 -0.8331031 -2.437921
0000c0 7d 40 3b 3f 5e cc ed 3e fd f8 43 3f 6d 9b 36 3f
       0.73145276 0.46444982 0.765518 0.7133091
0000d0 af c6 80 3f 12 54 56 3f a6 67 d0 be e4 b1 23 c0
       1.0060633 0.8372203 -0.40704077 -2.5577326
0000e0 c5 6f e6 3d b8 5f ca 3c 03 94 3b 3f cd 44 1a 3f
       0.11251787 0.024703845 0.7327272 0.6026123
0000f0 66 21 37 3f 20 47 e7 3e 38 10 90 bf 90 88 0a c0
       0.71535337 0.45171452 -1.125495 -2.164585
000100 0c 3c 59 3f 5f 0f b2 3e c1 77 50 bf 55 1d 06 40
       0.8485725 0.34777352 -0.8143273 2.0955403
000110 e5 35 dc 3f aa 63 88 bf 81 3a 4c bf 9e 62 6a be
       1.7203947 -1.0655415 -0.7977677 -0.22889182
000120 a7 6e 9a 3f b7 50 51 be f0 b5 6c bf 63 d0 aa 3f
       1.2065018 -0.20440947 -0.92465115 1.3344845
000130 8d 7f da 3f 06 f2 32 be 81 8d 1d bf 04 a8 f7 be
       1.7070175 -0.17475137 -0.6154404 -0.48370373
000140 91 00 ac 3d 4b 06 91 3e 79 90 81 bf 2e 9e 5b bf
       0.083985455 0.28325114 -1.0122215 -0.8578824
000150 68 4d 7e bf a7 4a 3a bf e5 90 35 3f 14 36 e9 3f
       -0.9933686 -0.7277016 0.70924217 1.8219628
000160 e1 52 49 3f b3 7e 19 3f ae 7b b7 bf 80 96 b0 3f
       0.7864209 0.5995895 -1.4334619 1.3795929
000170 5a b7 34 3f 91 d3 ae bf 11 72 4c 3d dc fd b2 3f
       0.7059227 -1.3658315 0.04991347 1.3983722

gen.3.bias f4 [12]
000000 b0 d2 11 bf a4 50 e7 be 2f 6b 1f 3f 4b 1b 0f bf
       -0.5696211 -0.4517871 0.62272924 -0.5590102
000010 8a a7 03 3f 3a 27 db 3e 65 19 77 3e 35 e1 77 3f
       0.5142752 0.42803365 0.24130781 0.96828014
000020 a1 15 4e 3f 5f 63 78 3f ad 88 c1 be 0c c8 77 be
       0.80501753 0.9702663 -0.37799588 -0.24197406

gen.5.weight f4 [8, 12]
000000 18 7a 56 3f 67 bd 33 3f 62 2b a7 3f 8c 33 a4 bf
       0.8378005 0.7021088 1.3060114 -1.2828231
000010 8a 61 04 3f 84 65 a9 3d 10 72 51 3f e5 7c 8a 3d
       0.5171133 0.08271316 0.8181467 0.06762103
000020 0a 73 86 3f e7 d4 53 3f 68 6f 68 be 0f 3a 2f 3f
       1.0503857 0.8274674 -0.22698748 0.68447965
000030 d4 73 8d 3f 37 f2 b6 3f a8 82 1e 3f 81 f5 a4 bf
       1.1050973 1.4292668 0.61918116 -1.2887422
000040 78 4a 58 3f 92 71 1d bf 5f 98 98 bd 6f e3 99 be
       0.8448863 -0.6150142 -0.074509375 -0.3005633
000050 9d 3e b0 3e 37 80 5c 3e 37 d0 ae 3e c0 4e 6a 3f
       0.3442277 0.21533285 0.3414323 0.9152641
000060 66 4c 54 bf 6e 2f 98 be 45 da 4b bf 8f 21 ec 3f
       -0.82929075 -0.29723686 -0.7962993 1.8447741
000070 ef 21 9c bf 1b a9 da 3c c3 d6 5c be 6b e6 10 be
       -1.2197856 0.026691964 -0.215663 -0.14150397
000080 a4 a1 6a bf 84 49 b2 be 31 06 89 bd 16 5a 15 bf
       -0.91652894 -0.34821713 -0.06690634 -0.58340585
000090 34 75 9e 3f a6 06 c0 3e 29 1c 9c bf 40 62 27 be
       1.2379518 0.37505072 -1.2196094 -0.16346073
0000a0 59 31 57 be 83 b3 e8 bf 25 50 aa bf b3 f2 04 c0
       -0.21014918 -1.8179783 -1.3305708 -2.0773132
0000b0 63 44 aa be 22 03 8d be ef 88 c8 3f 28 eb 60 3f
       -0.332553 -0.27541453 1.5666789 0.8785882
0000c0 92 e9 7d bf db 10 eb be 23 81 6e 3f fd fa ac 3e
       -0.99184525 -0.45911297 0.93165797 0.3378524
0000d0 a6 0d 86 3e 21 e4 d1 3f 15 dc d7 3f d9 18 0f 40
       0.26182288 1.6397744 1.6864039 2.2358916
0000e0 30 ec 25 3f 9b d4 8b 3f 6b c2 d9 bf 0a d5 d1 be
       0.6481352 1.0924257 -1.7012457 -0.40982848
0000f0 32 cd 59 3e db fd 22 bf 75 20 b2 bf f0 c0 ae 3f
       0.21269682 -0.636686 -1.3916155 1.365263
000100 90 d7 d6 bf 0d 4c e9 be 50 71 24 bf d8 06 f0 be
       -1.6784534 -0.45565835 -0.642354 -0.4688022
000110 cf 6a e4 bf 2a 15 fe bf 66 35 b6 3e e9 e7 30 bf
       -1.7845095 -1.9850209 0.35587615 -0.69103867
000120 e0 52 13 3f c5 d7 10 3e 07 45 72 bf 13 0d 5a 3f
       0.5754833 0.1414481 -0.9463658 0.851762
000130 3a 73 b7 be 61 8e 67 bf c0 25 3b bf 25 f5 bb bf
       -0.35830098 -0.9045163 -0.73104477 -1.4684187
000140 30 99 a5 be d3 4b 4a bf 44 7c 2d 3f 6c 39 48 3d
       -0.32343435 -0.7902195 0.6776774 0.048882887
000150 bb 63 fa 3f 43 67 ae 3f 4e 2f 29 3d 57 0c 25 bf
       1.9561685 1.3625263 0.04130488 -0.64471954
000160 de 67 0b 3f e3 56 3e be a9 ee 7e be ba ac 1c bf
       0.54455364 -0.18587832 -0.24895729 -0.6120106
000170 ce 1a 0c 3f 6b 03 6b 3f e9 ec 77 be 35 ca a6 3f
       0.547284 0.9180209 -0.24211468 1.3030459

gen.5.bias f4 [8]
000000 51 10 0b bf 3a a6 51 bd 3b 8b 2b bd 14 97 42 bf
       -0.5432177 -0.051183917 -0.041880827 -0.76011777
000010 4e fa f1 3f ca f5 6b be c4 e9 b6 bf a2 33 9b bf
       1.8904512 -0.2304298 -1.429009 -1.2125132

gen.7.weight f4 [4, 8]
000000 c0 67 ee be 70 ab 25 bf 81 e2 0c 3f 0d b4 0c bf
       -0.4656353 -0.6471472 0.5503312 -0.54962236
000010 37 0f ab bf 42 54 bb 3f 75 5f 50 3f 40 a2 87 bf
       -1.3364018 1.4635088 0.81395656 -1.059639
000020 fd 2e 2c 3f 39 f0 7a bf 5d 9b 80 3e 32 b2 1e c0
       0.672592 -0.980228 0.25118533 -2.4796262
000030 11 81 a6 3f 8c cb 2a bf b8 7b 82 bf c8 04 6d bf
       1.3008138 -0.6671684 -1.0194006 -0.9258542
000040 4d ab 95 3e 35 db 6b 3e f0 aa d9 3e c6 fa aa bf
       0.29232255 0.2303284 0.42513227 -1.335778
000050 d2 31 f7 3f 6a 91 2e bf 9f 97 29 bf f9 7c ac bf
       1.9312079 -0.68190634 -0.6624698 -1.3475639
000060 63 11 05 bf 1f f3 5e be 0d df dd 3d 47 1d 33 3f
       -0.51979655 -0.21772431 0.10833559 0.6996655
000070 44 7e 26 c0 7a 48 da 3f 34 35 8a be c9 c5 28 3f
       -2.6014566 1.7053368 -0.26993716 0.65926796

gen.7.bias f4 [4]
000000 cc 27 49 be f2 7e 54 3d 97 3d 88 3f 46 19 63 bf
       -0.19644088 0.051878877 1.0643796 -0.8871044

gen.9.weight f4 [4, 4]
000000 64 1d 7f bf ce e6 9c bd 76 66 68 bf 3d a0 6c bf
       -0.9965422 -0.0766121 -0.90781343 -0.92432004
000010 5c 93 2c bf 8c db 8e bd 1d 45 3b 3f c7 02 ce bf
       -0.6741235 -0.06975469 0.73152333 -1.6094598
000020 0a 11 a9 be d5 c8 6c 3f fb 41 80 3f ba 5f 42 3e
       -0.33020812 0.92493945 1.0020136 0.1898183
000030 13 94 4b 3f 1e 9a a2 3c 7d 3e a2 be 52 fc eb 3d
       0.7952282 0.01984888 -0.316883 0.11522736

gen.9.bias f4 [4]
000000 e0 6f 5a bf 02 08 e7 3f a8 d6 17 3f 85 a0 b1 be
       -0.8532696 1.8049319 0.59311914 -0.3469278
