gan2field/IP_flags, IP_DF/versions2/gen_4/0_gen_model.pt (torch, 3959 bytes, 10 tensors)

gen.0.weight f4 [3, 4]
000000 75 79 3a be 5a 8c 10 3e 8f a3 56 3e e0 f8 74 3e
       -0.18210395 0.1411604 0.2096083 0.23923063
000010 f4 76 e6 3d 21 93 9d bd ba 4b b1 bc 2e 18 d9 3c
       0.11253157 -0.07694078 -0.021642555 0.026500788
000020 1d 86 9c 3e 95 da 5a be bc 13 b7 bd 20 16 75 be
       0.3057107 -0.21372445 -0.08939311 -0.23934221

gen.0.bias f4 [3]
000000 6d 7d d0 be 1a 0d 9a 3f 5e 47 57 3f
       -0.40720692 1.2035248 0.8409327

gen.1.weight f4 [6, 3]
000000 4c 23 e1 bd f8 5d 24 be 75 83 2b bd 20 dd ca be
       -0.109930605 -0.16051471 -0.041873414 -0.3962183
000010 a2 f1 47 3e 1d 11 0f 3f 90 64 a4 3e 1d ab a2 bf
       0.1952577 0.5588549 0.32107973 -1.270847
000020 ac 22 38 bf b7 9c fe 3e 24 cc ac 3f 30 8a 9a 3f
       -0.71927905 0.4972894 1.3499799 1.2073421
000030 5e d3 a0 3e c4 bd 2f bf fe c9 8a bf 7c 71 b7 bd
       0.3141126 -0.68648934 -1.0842893 -0.08957192
000040 77 fc 77 3f e5 ae a3 bd
       0.96869606 -0.07992343

gen.1.bias f4 [6]
000000 28 a6 84 be 0d cf b9 3d 02 4c b4 be 33 6f 7f 3e
       -0.25908017 0.09072695 -0.3521424 0.24944763
000010 f5 39 b8 be 2c ae 8e 3f
       -0.35981718 1.1146903

gen.3.weight f4 [12, 6]
000000 c9 c5 84 3c 3d d8 01 bf ab 17 d0 bf 75 df 96 3f
       0.016207593 -0.5072058 -1.6257223 1.1786944
000010 39 43 90 bf ba bb 3c 3e 38 5d dd 3e fe 06 4f 3f
       -1.1270515 0.18430987 0.43235183 0.80870044
000020 86 34 07 bf dd 68 6a 3f 50 16 0d bf 47 75 a4 3d
       -0.5281452 0.9156626 -0.5511217 0.080301814
000030 37 43 34 be 87 bc 3c 3e bd f1 ca be c0 73 44 3f
       -0.17603765 0.18431292 -0.39637557 0.7673912
000040 8e 3b 8e bf 5e f5 85 bd b4 47 38 3e 67 3b 02 bf
       -1.1111925 -0.06540941 0.17996103 -0.5087189
000050 f2 5c 36 3e 50 4d b4 be 90 a6 72 3e 7f b6 a7 be
       0.17808893 -0.35215235 0.23696351 -0.3275642
000060 dd e4 14 bf 1c 8f b5 3e 53 33 5e be a5 9f a5 3e
       -0.5816172 0.35460746 -0.21699266 0.32348362
000070 f8 13 28 bd 21 06 2a 3f e3 25 d7 3e e1 43 10 3f
       -0.04103467 0.664156 0.42021093 0.56353575
000080 fa 70 fb bd cb 00 da bd 48 c4 10 bd f1 e2 23 bf
       -0.12277408 -0.106446825 -0.03534344 -0.6401816
000090 6a da 79 be 1d c8 8c 3e 03 20 b0 bd 19 37 5d 3e
       -0.24399725 0.27496424 -0.08599856 0.2160305
0000a0 07 45 b9 bd 3a 49 67 3f 99 fe 4f 3e d8 e7 05 be
       -0.09046369 0.9034611 0.20311965 -0.13076723
0000b0 2f 0b d3 3d d0 32 bc be 4a 1b 80 be 9e ba 5a bf
       0.103048675 -0.36757517 -0.2502082 -0.85441005
0000c0 41 a0 83 3e ad ba 87 be c4 66 81 3e fe 9d 20 bf
       0.25708202 -0.2650961 0.25273716 -0.62741077
0000d0 5f e5 0c 3e fc 67 0c 3f 24 0a 66 3e 5b 7a 52 bf
       0.13759373 0.5484617 0.22464806 -0.8221795
0000e0 3c e0 a5 3e 4b 0a 60 be 05 cb de 3e b9 68 48 bd
       0.3239764 -0.21878926 0.43514267 -0.048927996
0000f0 0c 53 d9 3d a6 c8 84 be 7a cd 7b bf dc 7f 69 3f
       0.10611543 -0.25934333 -0.9836041 0.9121072
000100 95 49 59 bf f7 49 d0 3e a9 54 9d 3e d5 89 97 bd
       -0.848779 0.4068143 0.30728653 -0.07399336
000110 1c 8d 09 be 92 63 1c 3e a0 cd d3 3d 91 f9 3a bf
       -0.13432735 0.15272358 0.10341954 -0.7303706

gen.3.bias f4 [12]
000000 57 4f 34 be 15 40 bd 3e 1f df 49 3d 4b 4d a2 be
       -0.17608391 0.36962953 0.04928505 -0.31699595
000010 7d 1b df 3e e8 f1 41 bd ac de 5b 3f b5 03 54 bf
       0.4357566 -0.04734984 0.85886645 -0.82818156
000020 94 48 36 3f 29 ec 8c be ac 66 05 be 91 e7 6a bf
       0.71204495 -0.27523926 -0.13027447 -0.9175959

gen.5.weight f4 [6, 12]
000000 a9 bd c9 bd 68 ce 12 3d 6a cf 67 3e 11 a8 0f 3e
       -0.09850628 0.035841376 0.22637716 0.14028956
000010 36 dc dd be b3 6b 96 3d be 41 aa be a1 95 10 3f
       -0.4333207 0.07344761 -0.33253282 0.56478316
000020 b4 dd cc be 2d 94 27 bd 4e 9f 0b be 9c 1a 0c 3f
       -0.40012896 -0.040912796 -0.13634989 0.547281
000030 82 e6 ff 3e 26 a0 dd be 6c 1f 1a bf 88 2e 60 3e
       0.4998055 -0.43286246 -0.60204196 0.2189275
000040 aa 9c 62 bf 05 8a 28 bf 87 5d 63 bf d8 e2 5c 3f
       -0.885203 -0.658356 -0.88814586 0.86283636
000050 0f 7f 59 bf c8 a9 25 3f e1 97 e0 3e bd e8 3c 3f
       -0.849595 0.6471219 0.43865874 0.7379263
000060 16 f3 72 3f 5e 18 2e 3f 68 4e ec 3e f9 eb 4b bf
       0.9490217 0.6800593 0.4615357 -0.7965694
000070 4f 26 64 3e 74 63 29 bf 79 8c 36 bd 52 70 da 3d
       0.22280239 -0.6616738 -0.04456756 0.10665955
000080 db 72 5c be 61 06 9c 3c 4a 17 4a 3f 68 05 ab be
       -0.21528189 0.01904601 0.78941786 -0.33402562
000090 60 d0 d6 3d ae 6a 68 be 8d de fd 3d 17 72 84 3e
       0.10488963 -0.22696945 0.12395964 0.25868294
0000a0 ec 10 09 bf c6 e1 1c bf f2 a0 67 bf 58 93 5f 3f
       -0.53541446 -0.61282 -0.9047996 0.87334204
0000b0 18 06 99 be 91 5e eb 3e 91 38 8d 3e d8 72 a1 3e
       -0.29887462 0.45970586 0.2758222 0.3153293
0000c0 ec 0f 3e 3f cb 44 21 3f b4 37 16 3f bb d2 e4 be
       0.74243045 0.62995595 0.58678746 -0.44692025
0000d0 25 22 ae 3e cc cd 34 be 7f 6e ae 3d 09 e8 30 3e
       0.34010425 -0.1765663 0.08517169 0.17276014
0000e0 89 7c 94 bd 07 c3 a2 be 2a 78 18 3f 5b 19 f4 3d
       -0.07250316 -0.3178942 0.59558356 0.11918899
0000f0 71 18 76 bf cc 95 8f be 66 a4 b5 be 3a 8b ae 3e
       -0.96131045 -0.28043973 -0.3547699 0.34090596
000100 19 f9 9d 3e 23 7a b7 bd 07 42 5d be cf b6 55 3e
       0.3085411 -0.089588426 -0.21607219 0.20870517
000110 b9 eb 8b 3d b1 4b 95 3d 28 01 e4 be e7 e3 6d 3e
       0.0683207 0.072898276 -0.44532132 0.23231469

gen.5.bias f4 [6]
000000 ec bb 11 bf 4c c8 89 bf 36 81 c9 3e 25 1d 5a bf
       -0.5692737 -1.0764251 0.39356393 -0.8520072
000010 60 8d 86 3e a1 bb b1 be
       0.26279736 -0.34713462

gen.7.weight f4 [2, 6]
000000 a9 f3 3f 3d fe d8 cc 3e 8f 95 90 3e ef be 10 3e
       0.04686323 0.40009302 0.28239104 0.14135335
000010 49 44 f9 3e 45 35 fa be 0f 4d dd be 89 11 21 bf
       0.4868491 -0.48868766 -0.43222854 -0.6291738
000020 6a 04 df bd 58 1a 57 bf 7b e7 d5 be 28 10 28 3e
       -0.10889514 -0.8402457 -0.41778168 0.16412413

gen.7.bias f4 [2]
000000 2e 64 93 3e 71 48 62 3f
       0.2878737 0.88391787
