gan2field/IP_flags, IP_DF/versions2/gen_4/1_gen_model.pt (torch, 3959 bytes, 10 tensors)

gen.0.weight f4 [3, 4]
-0.06650938 0.32339898 -0.4376577 -0.26739424 -0.078053065 0.24734169 0.0963399 -0.21628776
-0.3623285 0.32430446 -0.08924653 0.299484
00000000: 1236 88bd 8d94 a53e ac14 e0be e6e7 88be
00000010: 49da 9fbd 2447 7d3e da4d c53d 8a7a 5dbe
00000020: 1f83 b9be 3c0b a63e e2c6 b6bd f855 993e

gen.0.bias f4 [3]
0.01867462 0.40652427 0.084219724
00000000: 84fb 983c f323 d03e 647b ac3d

gen.1.weight f4 [6, 3]
-0.17985147 0.36158463 -0.04982852 0.21747941 0.2713481 -0.27351484 0.4437432 -0.040037088
0.21907662 -0.18111935 0.28107846 0.10788939 0.34495333 -0.4613704 0.12878478 0.30487397
0.345909 -0.14732665
00000000: fc2a 38be 9f21 b93e fd18 4cbd ecb2 5e3e
00000010: 23ee 8a3e 230a 8cbe 4f32 e33e eefd 23bd
00000020: 9f55 603e 5a77 39be 84e9 8f3e 1df5 dc3d
00000030: b99d b03e be38 ecbe 28e0 033e 7118 9c3e
00000040: fc1a b13e ccdc 16be

gen.1.bias f4 [6]
-0.46163896 0.5572416 0.22827946 0.30459866 -0.49449772 0.48489147
00000000: f15b ecbe 63a7 0e3f 17c2 693e 5bf4 9b3e
00000010: ce2e fdbe b243 f83e

gen.3.weight f4 [12, 6]
0.4315969 0.35475248 0.11942433 0.12425302 0.46174413 -0.29678345 0.1942074 0.077080205
0.35366836 -0.19851492 0.097548984 -0.21393687 0.36999363 -0.014329491 -0.27108052 -0.3204162
-0.0102034025 0.16511165 -0.01696209 -0.21330175 0.3529407 -0.032985244 -0.15945406 0.1426117
-0.054246128 -0.32242477 -0.3307189 -0.09283824 -0.19405553 0.16939452 0.080077454 0.4037879
0.26471978 0.41378677 -0.5129369 0.33494183 -0.5593116 -0.25834027 0.33077893 0.16639744
-0.32647336 0.31351864 0.41153643 -0.050309677 -0.028717127 -0.6017971 0.48832014 -0.4728042
0.09442466 0.25836396 0.19123372 -0.4333471 -0.07724149 -0.22709654 0.360234 -0.39392766
-0.358007 -0.008194734 0.32162035 0.04820705 0.04314308 0.36822286 0.12818268 -0.0053927964
0.049680084 0.2187649 0.4726744 0.09698323 0.07307383 -0.09444152 -0.057187285 -0.52221483
00000000: 45fa dc3e 1ea2 b53e be94 f43d 5e78 fe3d
00000010: ba69 ec3e 00f4 97be 4ede 463e 3adc 9d3d
00000020: 0514 b53e 7f47 4bbe c3c7 c73d 4412 5bbe
00000030: ce6f bd3e 3ec6 6abc 11cb 8abe 980d a4be
00000040: 2c2c 27bc 0713 293e 15f4 8abc c66b 5abe
00000050: a5b4 b43e 891b 07bd ed47 23be cd08 123e
00000060: 3031 5ebd dc14 a5be fd53 a9be fa21 bebd
00000070: 7eb6 46be c275 2d3e a6ff a33d 4abd ce3e
00000080: 5a89 873e dcdb d33e d54f 03bf 7f7d ab3e
00000090: 0c2f 0fbf 2d45 84be db5b a93e 1764 2a3e
000000a0: 8427 a7be 8485 a03e e7b4 d23e 8511 4ebd
000000b0: 2e40 ebbc 600f 1abf 1905 fa3e 6413 f2be
000000c0: b761 c13d 4848 843e c6d2 433e acdf ddbe
000000d0: c930 9ebd ff8b 68be 9770 b83e e3b0 c9be
000000e0: b24c b7be 3543 06bc 6cab a43e c174 453d
000000f0: ccb6 303d b587 bc3e 5242 033e 0eb6 b0bb
00000100: 587d 4b3d e803 603e 6102 f23e 259f c63d
00000110: bba7 953d 8e6a c1bd 373d 6abd dfaf 05bf

gen.3.bias f4 [12]
-0.46483335 -0.023223503 -0.011773513 -0.28070027 -0.07862798 -0.0026024054 0.5537402 0.13768694
-0.48030353 -0.285672 0.36719579 0.10506441
00000000: a3fe edbe 373f bebc b1e5 40bc f2b7 8fbe
00000010: b507 a1bd 1e8d 2abb ebc1 0d3f cefd 0c3e
00000020: 58ea f5be 9a43 92be 1601 bc3e 022c d73d

gen.5.weight f4 [6, 12]
-0.014546752 -0.08648696 0.112208806 -0.036150698 -0.01970461 -0.178063 0.30997092 0.330119
-0.15378304 -0.24730076 -0.05776447 -0.018758783 0.042261504 -0.04209267 -0.01589233 -0.17680892
-0.014680455 -0.1245907 -0.15975948 0.31222686 0.20220996 -0.16790128 0.1176829 0.11722729
-0.011495713 -0.046767794 0.09112532 -0.04381945 0.027066303 0.10155121 0.1093828 0.11822181
0.13852407 -0.27232516 0.30526593 -0.08221927 0.40218043 -0.18880776 0.13048026 -0.12250301
0.23723114 -0.21046218 0.07658887 -0.025989788 0.18321061 0.37767527 -0.16013223 -0.2944274
0.2967362 0.114713475 0.10846477 0.22691244 -0.1073291 -0.11673891 -0.28181952 0.06443856
0.41024822 0.38523263 -0.24449065 0.18096384 0.09323876 -0.2450043 -0.12324345 -0.22476916
-0.08726339 0.31105497 0.2777834 0.027444586 -0.36701027 -0.10416163 0.108624905 0.19902086
00000000: 8055 6ebc 1320 b1bd bbcd e53d c112 14bd
00000010: 906b a1bc 2656 36be 82b4 9e3e 5c05 a93e
00000020: 4d79 1dbe 693c 7dbe 709a 6cbd 05ac 99bc
00000030: 661a 2d3d 5d69 2cbd a230 82bc 660d 35be
00000040: 4b86 70bc 6929 ffbd fd97 23be 33dc 9f3e
00000050: 2110 4f3e 50ee 2bbe bb03 f13d dd14 f03d
00000060: 8458 3cbc 968f 3fbd e99f ba3d 067c 33bd
00000070: 27ba dd3c 15fa cf3d 1704 e03d 471e f23d
00000080: 41d9 0d3e 346e 8bbe d14b 9c3e 9462 a8bd
00000090: 98ea cd3e d256 41be 9e9c 053e dce2 fabd
000000a0: b8ec 723e 6683 57be a0da 9c3d 89e8 d4bc
000000b0: 909b 3b3e a75e c13e b4f9 23be 30bf 96be
000000c0: cfed 973e e6ee ea3d c722 de3d bc5b 683e
000000d0: 5ccf dbbd cf14 efbd a64a 90be 5df8 833d
000000e0: 0e0c d23e 363d c53e c25b 7abe 964e 393e
000000f0: f7f3 be3d 68e2 7abe 1067 fcbd e329 66be
00000100: 26b7 b2bd 9942 9f3e a039 8e3e 78d3 e03c
00000110: c5e8 bbbe b152 d5bd bc76 de3d 20cc 4b3e

gen.5.bias f4 [6]
-0.051267922 -0.09576559 -0.018357512 -0.20617227 -0.027198061 0.41219947
00000000: 50fe 51bd c020 c4bd 7e62 96bc d31e 53be
00000010: 78ce debc cf0b d33e

gen.7.weight f4 [2, 6]
-0.14877473 -0.03871408 -0.08200262 0.3842166 0.20200127 -0.20510955 -0.116144985 0.038405884
0.06905955 0.09403526 -0.22772224 -0.064947605
00000000: 6758 18be a892 1ebd fdf0 a7bd 0ab8 c43e
00000010: 6cd9 4e3e 3d08 52be 6cdd edbd 7d4f 1d3d
00000020: 186f 8d3d 8f95 c03d 0530 69be 4003 85bd

gen.7.bias f4 [2]
-0.22216555 0.07575724
00000000: 5e7f 63be 9d26 9b3d
