gan2field/versions/01_gen_model.pt (torch, 3201 bytes, 8 tensors)

gen.0.weight f4 [3, 4]
0	0xbe6f7fe5	-0.23388632
1	0xbdca09f1	-0.098651774
2	0xbdc1973a	-0.09452672
3	0xbee99834	-0.45623934
4	0x3d1ee892	0.038796015
5	0x3d7a7c7e	0.06115388
6	0xbd8823fb	-0.06647488
7	0x3db578ba	0.088609174
8	0xbd9b305f	-0.075775854
9	0x3df4bff1	0.119506724
10	0x3e601991	0.21884753
11	0x3d86bcfb	0.06579014

gen.0.bias f4 [3]
0	0xbeadf867	-0.33978578
1	0xbe4e129a	-0.20124283
2	0xbea1d033	-0.31604156

gen.1.weight f4 [6, 3]
0	0x3eaf642e	0.3425612
1	0x3e888a7a	0.2666815
2	0xbd7c4bbc	-0.061595663
3	0x3efaa5f6	0.48954743
4	0xbe694486	-0.22780046
5	0x3e50e40e	0.20399496
6	0x3b5f747d	0.0034096532
7	0xbdb0fa67	-0.086415105
8	0xbe75808e	-0.23974821
9	0x3e5de10d	0.21667881
10	0x3d8a83d2	0.06763424
11	0xbeaad867	-0.33368227
12	0x3dce1450	0.10062468
13	0xbe6a9bbf	-0.22910975
14	0xbeac7a0d	-0.33686867
15	0x3e96beda	0.29442483
16	0x3d9d4382	0.07678892
17	0x3f142e0a	0.5788275

gen.1.bias f4 [6]
0	0xbf12537f	-0.57158655
1	0xbe81693e	-0.25275606
2	0xbf5e3f02	-0.8681489
3	0x3eaaede3	0.33384618
4	0x3f042d0a	0.51631224
5	0x3d08e499	0.033421133

gen.3.weight f4 [12, 6]
0	0xbaf73f72	-0.0018863513
1	0x3e91e93d	0.2849826
2	0xbd122eec	-0.03568928
3	0x3e985410	0.29751635
4	0x3d7678ff	0.060173985
5	0x3e70a481	0.23500253
6	0x3e6f714a	0.2338306
7	0xbe4cab66	-0.19987258
8	0xbf15aa58	-0.5846305
9	0xbe9be57f	-0.3044853
10	0xbe90e857	-0.2830226
11	0xbead736c	-0.33877122
12	0xbe386716	-0.18008074
13	0x3d7259bc	0.05916761
14	0x3d4749ec	0.04865448
15	0xbec08031	-0.37597802
16	0x3d358483	0.044315826
17	0xbd512cd5	-0.051068146
18	0x3ea7301a	0.32653886
19	0xbe9ba872	-0.3040195
20	0xbe64dfc6	-0.22350988
21	0x3ea5ce6f	0.3238406
22	0x3ebb5621	0.3658915
23	0xbaf11a73	-0.0018394723
24	0xbdef5cce	-0.11687623
25	0xbda6f95e	-0.08153032
26	0xbe1ed24e	-0.15509912
27	0x3b0e9b3a	0.0021760003
28	0xbe87bc43	-0.2651082
29	0xbdb6df61	-0.08929325
30	0x3b896f72	0.0041941935
31	0xbf01eeee	-0.507552
32	0xbe9cbae9	-0.3061135
33	0x3e5ea38d	0.21742077
34	0x3d998737	0.07496493
35	0xbee1b2b4	-0.44081652
36	0x3e932a01	0.28742984
37	0x3ed17a09	0.40913418
38	0xbe117c31	-0.14207532
39	0xbe42bed2	-0.19018105
40	0xbc66889b	-0.014070655
41	0xbe886081	-0.26636127
42	0xbd0f1309	-0.034930263
43	0xbee220cb	-0.44165644
44	0xbec803fa	-0.39065534
45	0xbe9a7cb5	-0.3017327
46	0x3e0f0e69	0.13970341
47	0x3e8376fc	0.25676715
48	0xbdaaad8e	-0.08333884
49	0x3ed35828	0.41278195
50	0x3e2b33f1	0.16719033
51	0xbebe5824	-0.3717662
52	0xbea631fd	-0.32460013
53	0x3e99efc8	0.3006575
54	0xbe8b1f3b	-0.27172264
55	0x3dfd8ddc	0.12380573
56	0xbd8b8f18	-0.06814402
57	0x3d245a97	0.040125456
58	0xbec9c079	-0.39404657
59	0xbd9e3792	-0.07725443
60	0x3dd36e3d	0.10323761
61	0xbeed2b5e	-0.4632215
62	0x3ddaf26c	0.106907696
63	0xbd25eb89	-0.040507827
64	0x3e221691	0.15828921
65	0x3dbc9477	0.09208005
66	0x3c8db865	0.01729984
67	0xbe954940	-0.29157448
68	0xbe73561a	-0.23763314
69	0x3e8ceb77	0.27523395
70	0x3ef2cdbd	0.4742259
71	0xbda517f0	-0.08061206

gen.3.bias f4 [12]
0	0x3dfa81d3	0.12231793
1	0xbe9d0db4	-0.30674517
2	0xbe279c5c	-0.1636824
3	0x3e930ce9	0.28720787
4	0xba2e9bf3	-0.00066608115
5	0x3c0d9a57	0.0086427545
6	0xbedd0eb3	-0.43175277
7	0xbd8f4871	-0.06996239
8	0x3d53d9dd	0.051721442
9	0x3be3671e	0.0069397828
10	0x3d287808	0.041130096
11	0xbea1d26a	-0.31605846

gen.5.weight f4 [2, 12]
0	0x3e4ee035	0.20202716
1	0xbe566710	-0.20937753
2	0x3e2e4db9	0.17021836
3	0xbca951d7	-0.020668907
4	0x3d963837	0.07334941
5	0x3e3b7f92	0.18310383
6	0xbe9fb274	-0.31190836
7	0x3de80334	0.11328736
8	0xbd5d616a	-0.05404798
9	0x3de96485	0.11396126
10	0xbe1edec2	-0.15514663
11	0xbe90e3de	-0.2829885
12	0x3dc5e8f3	0.09663572
13	0xbe9bb727	-0.30413172
14	0xbe4d94d7	-0.20076309
15	0x3e7237e3	0.23654132
16	0xbcf63752	-0.030055676
17	0xbeb1b3d4	-0.3470751
18	0x3dc4458b	0.09583577
19	0xbc590f2a	-0.013248244
20	0x3df4d745	0.11955122
21	0xbe05aab0	-0.13053393
22	0x3e48ea3d	0.19620605
23	0xbe5dec0d	-0.21672077

gen.5.bias f4 [2]
0	0xbc6235c7	-0.013806767
1	0xbdfea2fd	-0.12433431
