gan2field/versions/041_disc_model.pt (torch, 3285 bytes, 7 tensors)

disc.0.weight f4 [4, 2]
000000 1c f2 ff be 2e 40 1a c0 a2 e3 11 3e bd a5 a7 3f
       -0.49989402 -2.4101672 0.14246991 1.3097454
000010 08 27 a9 3f aa 35 b3 be 6e de 3a bf bf 84 35 c0
       1.3215036 -0.3500188 -0.7299565 -2.8362272

disc.0.bias f4 [4]
000000 96 66 be 3e 40 8d 40 3f 77 22 09 be 0a ca 03 3f
       0.37187642 0.7521553 -0.13392054 0.5148016

disc.1.weight f4 [8, 4]
000000 b2 e0 4d 3f ca 0b af bf 01 a5 85 bd 57 3d 79 3f
       0.8042098 -1.3675473 -0.065256126 0.9735922
000010 0a 78 a3 3f a1 1d 0b bf 15 fb a6 bf 03 df f4 3f
       1.2771008 -0.54342085 -1.3045374 1.9130558
000020 ac 21 97 3f 6f 20 82 bf f4 0e d8 3e 56 3d 99 3f
       1.1807151 -1.0166148 0.42198908 1.1971843
000030 6e ea 57 3f fd 73 11 bf 8b a9 a3 bf 07 8f 2b 3f
       0.84342086 -0.5681761 -1.2786115 0.6701512
000040 ba 65 fb 3d 9b 16 9e be 94 1d e8 3f 11 39 63 3e
       0.12275262 -0.30876622 1.8134027 0.22189738
000050 d1 94 9a 3e 2c 99 7c be e6 e9 f9 3f b3 1a a0 3e
       0.30191663 -0.24667805 1.9524505 0.3127037
000060 40 52 50 bf cf 05 ce 3e fe 2b 46 3f 38 01 aa bf
       -0.81375504 0.40238807 0.77410877 -1.3281622
000070 97 e4 28 bf 5b 27 01 bf 56 48 f5 bf f9 64 1f bf
       -0.659738 -0.50450677 -1.91627 -0.6226345

disc.1.bias f4 [8]
000000 a9 52 60 bf 65 cf 17 bd 6a 8c 6e bf 22 00 96 bf
       -0.8762613 -0.03706302 -0.93183005 -1.171879
000010 49 47 55 bf a1 fd 20 bf 60 b6 1d 3d 66 78 33 bf
       -0.833119 -0.62887007 0.038504004 -0.7010559

disc.3.weight f4 [8, 8]
000000 6f ea 57 bf 46 ca a0 bf 0d cf a5 be e3 57 bd be
       -0.8434209 -1.2561729 -0.3238453 -0.36981115
000010 17 da 87 be 97 13 a8 3e e6 91 42 3f 42 8b fe be
       -0.26533577 0.32827446 0.76003873 -0.4971562
000020 4f 54 b3 bf 30 a0 a3 3e e6 52 47 bf 0e 7a 06 c0
       -1.4010104 0.3195815 -0.7786087 -2.1011996
000030 c9 16 7c be a7 d2 ff be ae 62 10 3e 03 3c 2b bf
       -0.24618067 -0.49965402 0.14100143 -0.66888446
000040 81 79 18 3f 33 e7 1e 3f d0 d2 c2 3f 1e f8 aa be
       0.595604 0.6207153 1.5220585 -0.33392423
000050 45 96 87 3f 35 6f 30 3f f6 f1 ae be 7e 06 77 3f
       1.0592734 0.6891969 -0.34168977 0.9649428
000060 15 eb e4 bd 65 1d aa bf c5 9e c4 bf 36 17 82 bf
       -0.11177651 -1.329022 -1.5360953 -1.0163333
000070 05 59 df 3e cd 1e d3 3e ec db c8 3f 9c be c0 be
       0.43622604 0.41234437 1.5692115 -0.37645423
000080 26 f2 6b 3e 72 97 65 bf f7 ea a3 3f 42 89 47 3f
       0.23041591 -0.8968421 1.280608 0.77943814
000090 5c ec 7f 3f 24 60 ad 3f 34 45 ec bc ae 30 12 c0
       0.9997003 1.3544965 -0.028841592 -2.2842212
0000a0 9f cd c3 bd f8 4f 59 bf cb f3 97 3f a3 9a 66 3f
       -0.095607035 -0.8488765 1.1871275 0.90079707
0000b0 ed aa ba 3f d2 57 f3 3f e5 c3 41 3f 6b 6f 74 bf
       1.4583412 1.9011176 0.75689536 -0.9548251
0000c0 31 a9 c1 3f b3 ce 97 3f cc 8b 20 40 ee 9d 52 3f
       1.5129758 1.1859955 2.5085325 0.8227223
0000d0 18 cf b0 3e a1 b6 8a be c4 2f 78 bf 23 db d9 3c
       0.34533 -0.2709246 -0.96947885 0.02659375
0000e0 58 8f e5 bd 20 b0 ae bf 3a f4 87 3f 25 99 9c 3e
       -0.11208981 -1.3647499 1.0621407 0.3058559
0000f0 35 19 83 3f 1d 3e d9 3f 00 47 06 3e 50 9e e7 bf
       1.0242068 1.697208 0.13113022 -1.8095188

disc.3.bias f4 [8]
000000 db b1 00 40 08 25 af 3f 78 9c 1a c0 a7 f3 13 3f
       2.0108554 1.3683176 -2.4158 0.5779366
000010 09 d4 53 bd c3 23 39 3e 30 52 29 bf cd 79 84 3d
       -0.051715884 0.18080048 -0.66141033 0.06468544

disc.5.weight f4 [1, 8]
000000 41 98 d5 3f 3b 11 d5 bf ff 06 a8 40 c7 67 62 40
       1.6687089 -1.6645883 5.250854 3.537584
000010 a0 77 81 40 81 e7 6f 40 1d 46 57 c0 a8 41 4b 40
       4.0458527 3.7485049 -3.3636544 3.1758823
